HPC_Results/B0105+64_RBF.npy (npy, 308880 bytes, 1 tensors)

array f8 [19300, 2]
-0.9108172184593701 1.9976370608259948 -1.0666787964787894 1.9957998370144974 -1.0896115977986245 1.992325339204322 -0.9150345284253388 2.001825131162893
-0.9971961277893381 1.9950185730400603 -0.9528677789878748 2.013534118014327 -1.0616394191904985 1.9911210690589842 -1.0686606211498113 2.000874901458674
-0.9666512660264025 1.9908313953122825 -1.068871708184916 1.9964434305851906 -1.0967590245624401 1.9955709733408598 -1.016053306825172 1.9907756276708504
-1.0532819948517183 1.9960648343066756 -1.0256440383884704 2.007744685549571 -0.9168578967139657 1.9944406250956193 -0.8635095238813817 2.0023059868148936
-0.8769061223443018 2.008031487310221 -1.206899288016033 1.9875944222483373 -1.0880005588070571 1.9900288813626918 -1.054998005269798 1.988131449001812
-1.0780956985432704 1.9844441529963122 -1.1444496673199305 1.9876447034669682 -1.2208091937435674 1.9869672878181175 -0.7978232216076289 2.03250795731771
-0.9204953652699651 1.9930078005761496 -0.8715838278426981 2.012430525180522 -1.0572118527664012 2.0224309691253928 -0.942062034971813 2.0057944491605175
-0.9508448733231014 2.0021254657859378 -1.1317657598030242 1.999067739976474 -1.1835278530903286 1.9827988274698227 -0.9070545933511454 2.012247180395659
-0.8486044413937041 2.015267679816783 -0.8585834544362297 2.005836487952517 -0.8610198725082501 2.0248034607346357 -0.9457332704179796 2.01090297497625
-0.9995681479466632 2.015039999289731 -1.0105681018506356 2.0040386225536913 -0.9380386455269276 2.006682614914064 -0.7651984150990893 2.0283769242072607
-1.1129366689703883 1.9918044638772303 -1.0749718917200883 1.9851721011070909 -0.7967767783528944 2.017075740815202 -0.9342113212685601 2.00443932078549
-1.1252172813804 1.9840401910253795 -1.1220831389943817 1.983316389525552 -1.120343817067422 1.9913563509134762 -1.0029027535558994 2.011123720489112
-0.9797599077132255 1.9959484527836933 -0.8664297745461178 2.0225811791427506 -0.6440078714356623 2.0644645463347246 -0.8472570188473669 2.022005640984757
-0.8887617850396923 2.0112845881583103 -1.1482090718886302 1.999976175358107 -1.0733499625330207 2.0053436703767322 -0.921322658562277 2.014354849533908
-0.845289091531368 2.0119276781670865 -0.8603785976179701 2.018916281367622 -0.9194406814536928 2.0302346786908934 -0.8933035333381917 2.014561803341749
-1.3028539256243516 1.9865630674123054 -1.0817678135863276 1.9972175108826453 -1.068421807322705 1.998566627448444 -0.8774658907773052 2.006097879964929
-0.8965735056081385 2.004003177779695 -0.56064043810088 2.0413008133093213 -0.681547915465342 2.0228175817469536 -1.2724367913194146 1.9774442142516897
-1.1500131660305657 1.9802533879180373 -1.0410829285617644 1.994739173244986 -0.9145319510034914 2.0027705867225865 -0.7941742811671131 2.016746274690799
-0.8438538143700159 2.011674175984569 -0.9520119227498882 2.013693627660827 -1.0275062260238315 1.9849374054507711 -0.9356162963732038 2.0193667981472925
-0.8842035513819613 2.0259990008217086 -0.8323617395497039 2.0147768880708616 -0.7263906759568592 2.0188990437545455 -0.8252328714867703 2.011905671678535
-0.9024700855719612 1.9986007316903944 -0.940123690983477 1.99583294249141 -1.1538176542874925 1.9902412613409413 -1.204102287104512 1.978866734686302
-0.9181541561918531 2.014141271480853 -0.9194404872045213 2.0003023267950772 -0.8840836656260679 2.0086999090753106 -0.9961689071929496 1.9999456817401493
-0.7515317392477774 2.025278999351786 -0.72056984404065 2.0240575881774445 -0.9893466100453079 2.0082753610325534 -0.9818067235645568 1.9960146595577968
-0.8569295249750581 2.0173172199590774 -1.0209287644187284 2.0173259602708624 -1.0275099588535546 2.0030870577368263 -1.0091167237381837 1.9983865190894694
-1.021817325532564 2.006008586387193 -0.9002467136172374 2.0070645832623937 -0.8706585254286929 2.0166041287682877 -0.897900052610676 2.0102517096054546
-0.932247089256202 2.0070033428554583 -0.9276521712767981 2.0118141315931655 -1.1057825660017335 2.0033249395247923 -0.7897851033934367 2.020772302920588
-1.0027904144662334 1.9925930670081784 -0.8588987752940848 2.0136205707090635 -0.9099613638760278 2.0116338018606674 -0.9535056211167741 2.008423835420517
-0.9507703632441985 2.0046071771844827 -0.7624878157802982 2.020282030501245 -0.9183214004165826 2.0082616184445787 -0.9501844872783407 1.9983399817475145
-0.8709734141738987 2.0083282193103655 -1.0316195790086038 1.9916794070348605 -1.0219733762118053 1.9973617982732266 -0.8968650713569559 2.0217427872055547
-1.1183183315569611 1.9888321495232222 -0.7583276923236589 2.0254699108883334 -0.7278913236453308 2.0322274534493676 -0.8414299852226731 2.012648122075085
-0.9975359386082979 1.9987420590915512 -1.187547765825314 1.9914527600907295 -1.128633973922277 1.9977943998074634 -1.124132171466986 1.9962693395106443
-0.7345378459234845 2.034413720274376 -1.0158735812292985 2.0080335777246767 -0.9381463975699412 2.002446236345932 -1.0455501384264978 2.0008508020381375
00000000: 7655 bd26 6a25 edbf 4367 5847 52f6 ff3f
00000010: 9d68 23c9 1d11 f1bf 2b6e 55cf cbee ff3f
00000020: c832 1e92 0c6f f1bf a6fe ed88 90e0 ff3f
00000030: 0b86 c97d f647 edbf 8a3e f5e4 bc03 0040
00000040: 89b2 91da 07e9 efbf 12ea 6198 98eb ff3f
00000050: 5248 8591 e47d eebf 9003 92c6 b71b 0040
00000060: ff14 999d 79fc f0bf 21c2 1fc4 a1db ff3f
00000070: a5c8 25e1 3b19 f1bf c337 49b3 ca01 0040
00000080: 790d c7a2 ceee eebf f875 6b05 72da ff3f
00000090: c561 6438 191a f1bf cbd6 aaaa 6ef1 ff3f
000000a0: aa6a e130 538c f1bf ba88 35d4 dbed ff3f
000000b0: 85e8 bc1c c141 f0bf a352 688b 37da ff3f
000000c0: 0ba9 9538 3eda f0bf 6faf 00ae e1ef ff3f
000000d0: 1e74 23b9 0969 f0bf c739 1972 dc0f 0040
000000e0: 11e8 2e5f e656 edbf 7a97 a992 3ae9 ff3f
000000f0: b25c 9bb9 dea1 ebbf caa3 4f00 b904 0040
00000100: c030 a46d 9d0f ecbf 63af facf 7210 0040
00000110: 4383 b9a0 754f f3bf 484c 14cf 2fcd ff3f
00000120: 52b2 2146 7368 f1bf 88c5 3886 28d7 ff3f
00000130: 0faa 9f96 45e1 f0bf 3dca 19ec 62cf ff3f
00000140: d739 7346 e13f f1bf a7b8 1d83 48c0 ff3f
00000150: 37ea 5074 aa4f f2bf fa54 5788 64cd ff3f
00000160: 568e 9c38 6f88 f3bf ff68 f635 9eca ff3f
00000170: 7c69 9990 c487 e9bf 8b50 2c88 9342 0040
00000180: c787 3eb2 b274 edbf f75b c225 5ce3 ff3f
00000190: fbd1 89c4 03e4 ebbf c5fa d82c 7519 0040
000001a0: 4434 c9f9 56ea f0bf 3b7d b649 f02d 0040
000001b0: 883a e047 5f25 eebf 5e24 cdf5 dd0b 0040
000001c0: 54be 4f3a 526d eebf a150 305b 5a04 0040
000001d0: a262 d169 b61b f2bf 5c00 5b74 2efc ff3f
000001e0: 4fd9 eee6 baef f2bf 067b 6843 8bb9 ff3f
000001f0: e626 c45a 9706 edbf fb23 ba0c 1519 0040
00000200: 83d7 6080 c427 ebbf b6fd 4ba9 441f 0040
00000210: 0b17 3602 8479 ebbf 5609 2700 f40b 0040
00000220: f620 348c 798d ebbf 8a76 2528 cc32 0040
00000230: 2be6 656b 7243 eebf e79d 874c 5416 0040
00000240: 12bc 3157 76fc efbf 6ba6 884a cd1e 0040
00000250: b844 3d75 492b f0bf db4f be66 4508 0040
00000260: 6883 1d9f 6904 eebf b40f 649d af0d 0040
00000270: e1a6 f962 817c e8bf 3673 4bae 1d3a 0040
00000280: b2f3 3bae 96ce f1bf 8112 865b 6ede ff3f
00000290: 9be9 f0b9 1533 f1bf 27fc 32d2 43c3 ff3f
000002a0: 0f9d a703 327f e9bf a1d9 229b f822 0040
000002b0: 64d8 0c24 0fe5 edbf 97b8 8c7b 1709 0040
000002c0: fcc3 06d6 e300 f2bf 2375 66ed a0be ff3f
000002d0: 76fb 1573 0df4 f1bf f120 6af7 a9bb ff3f
000002e0: 4149 69a3 edec f1bf 3aaf 1d7a 98dc ff3f
000002f0: 7974 f9c1 e30b f0bf 45af 7d08 c816 0040
00000300: d4ed 3173 315a efbf ff52 13a5 67ef ff3f
00000310: 6e99 3eef cab9 ebbf c762 8f0a 3f2e 0040
00000320: 06d9 4565 b69b e4bf ad12 f2fc 0584 0040
00000330: 4e30 68c0 ba1c ebbf 3cdb 224b 112d 0040
00000340: 0ec3 158e bc70 ecbf ceb5 c85f 1c17 0040
00000350: 02b7 cb79 105f f2bf 6013 9f04 e7ff ff3f
00000360: d8df a302 712c f1bf c111 4c9f f10a 0040
00000370: 13d7 f2a7 797b edbf 0e4c 4a13 661d 0040
00000380: 6c5e 79b5 9b0c ebbf a728 dd89 6d18 0040
00000390: 2052 5eb2 3888 ebbf ddaf 4e94 bd26 0040
000003a0: fc93 2edd 0e6c edbf ab75 e1ad eb3d 0040
000003b0: 47d7 a24a f195 ecbf 20fd 2894 d21d 0040
000003c0: 5259 a05b 7dd8 f4bf 00a3 df5a f6c8 ff3f
000003d0: cd7f 53c4 eb4e f1bf efd4 4359 9af4 ff3f
000003e0: 368c 0c77 4118 f1bf 114a fcff 20fa ff3f
000003f0: 20cf 0759 3314 ecbf c631 980b 7d0c 0040
00000400: 4081 a1eb bab0 ecbf a226 6dd1 3208 0040
00000410: 26ab 4e37 c4f0 e1bf a3b1 5385 9554 0040
00000420: 6994 f292 3dcf e5bf 0a04 fbfb ba2e 0040
00000430: e11a 4fae e65b f4bf bd01 5e8b 9ca3 ff3f
00000440: 9421 a134 7466 f2bf 336b 2e2d 1eaf ff3f
00000450: 038c a992 46a8 f0bf 5a32 929f 73ea ff3f
00000460: 51a0 9682 d843 edbf f7e9 da95 ac05 0040
00000470: 64fc 9d2e e069 e9bf b703 f1de 4b22 0040
00000480: cf5e eab6 d900 ebbf e57d 60a1 e817 0040
00000490: 749c 33b5 e176 eebf 1dbc 9767 0b1c 0040
000004a0: 0057 535e aa70 f0bf 5c4a 90b9 4dc2 ff3f
000004b0: b8e1 5096 91f0 edbf e95d a5c7 a927 0040
000004c0: 9c29 063f 654b ecbf 3610 d2f6 3e35 0040
000004d0: 41d8 3916 b5a2 eabf 0e02 5858 431e 0040
000004e0: 5454 aba8 973e e7bf c3cf b68a b426 0040
000004f0: ced5 53c4 4e68 eabf 43f8 3300 6218 0040
00000500: f0cb e4f1 08e1 ecbf 5df3 c5c2 44fa ff3f
00000510: c500 5f47 7e15 eebf 1b7b 0486 eeee ff3f
00000520: 3b65 2b80 0976 f2bf 01bf 8938 07d8 ff3f
00000530: 6271 82c2 0044 f3bf 6ceb 492a 70a9 ff3f
00000540: bcf9 30d3 8461 edbf e145 5419 f61c 0040
00000550: db2c e574 0e6c edbf 9b94 9d81 9e00 0040
00000560: 1b56 d9d3 694a ecbf 2fa7 0742 d111 0040
00000570: e4f1 b59d 9de0 efbf 199b 0d0b c7ff ff3f
00000580: de34 3f4a 8c0c e8bf a5ee db79 c533 0040
00000590: e06d 547d e80e e7bf c68a d31a 4531 0040
000005a0: b0b2 d138 baa8 efbf b2fa 27ac f210 0040
000005b0: 637c 16ef f56a efbf 6d32 5211 adef ff3f
000005c0: 80d4 9777 f76b ebbf 150e eb35 7723 0040
000005d0: 0696 6b66 b955 f0bf 96e1 05cb 7b23 0040
000005e0: f671 5948 ae70 f0bf 0d2a e081 5206 0040
000005f0: acd5 e493 5725 f0bf d51a 8424 64f9 ff3f
00000600: 7460 ba1f 5d59 f0bf b939 d03a 4e0c 0040
00000610: 1029 2a32 d2ce ecbf 2693 50e0 770e 0040
00000620: ee64 9644 6fdc ebbf 944e 7058 0122 0040
00000630: da43 21e4 98bb ecbf 3ede 2bd9 fe14 0040
00000640: cab0 04d9 f7d4 edbf 0737 c4c4 570e 0040
00000650: c74f 369b 53af edbf 1796 e601 3218 0040
00000660: 366e 570f 49b1 f1bf 4a29 d439 cf06 0040
00000670: 542b be68 eb45 e9bf faa6 4dab 8a2a 0040
00000680: 02ff 2df6 6d0b f0bf 5a95 9044 a9e1 ff3f
00000690: 2fcd ce48 197c ebbf 7cfc 0d1a e51b 0040
000006a0: 3613 4f4b 671e edbf 5e28 7476 d317 0040
000006b0: 72f5 6738 1e83 eebf a31a 0d84 4011 0040
000006c0: d779 04f8 b56c eebf 81ac da7c 6f09 0040
000006d0: cdfe 0bd9 4c66 e8bf 3698 0da0 8929 0040
000006e0: 5332 c08f e362 edbf 8140 a877 eb10 0040
000006f0: 32dd 404c e967 eebf 2651 3e58 33f9 ff3f
00000700: d6fe 31a3 03df ebbf 5393 ac62 0e11 0040
00000710: 7815 1c88 8381 f0bf 684d d539 ebdd ff3f
00000720: 0666 43c1 005a f0bf e7cf 1da5 31f5 ff3f
00000730: 00e4 cc60 1eb3 ecbf 22c6 7f7b 872c 0040
00000740: f5de 48c3 a1e4 f1bf 4ef8 f6a8 41d2 ff3f
00000750: edcc c56f 3844 e8bf 2161 9291 2934 0040
00000760: c229 c3be e24a e7bf 84c9 9477 0042 0040
00000770: f1f6 8c93 feec eabf b158 3542 e719 0040
00000780: a108 1d7d d0eb efbf b001 0ff4 d8fa ff3f
00000790: 7d85 0a16 3200 f3bf dbe5 c191 fddc ff3f
000007a0: 4169 727f e20e f2bf 4ce1 b442 f7f6 ff3f
000007b0: 9150 0d04 72fc f1bf b44a 731e b8f0 ff3f
000007c0: 074d 3d83 5581 e7bf a8e5 58b3 7a46 0040
000007d0: f800 04a8 0441 f0bf 65c7 8ce8 7310 0040
000007e0: 218a 0d98 4b05 eebf 20d5 4888 0205 0040
000007f0: daeb 2dc8 92ba f0bf f16e b710 be01 0040
