HPC_Results/B0105+64Local_Periodic.npy (npy, 573680 bytes, 1 tensors)

array f8 [23900, 3]
-0.27710538137337193 2.229373508793065 2.20812545551303 -0.3190125457566448 2.232494033492671 2.1930322589027704 -0.2931602119248804 2.229040640560512
2.194676859349649 -0.27240919416497555 2.24440582782108 2.191803336217044 -0.40934710209325 2.1290169603140945 2.2168231464749644 -0.3509741725755822
2.2217128062676657 2.1888241869492866 -0.46494964084802126 2.135501017420981 2.1689982740331186 -0.33645342789733457 2.205551039692068 2.209604797006222
-0.4495804316525268 2.146477612788888 2.216676933621949 -0.2936642912616746 2.2378040140718425 2.196569020779731 -0.3451967447596615 2.219106288026341
2.184014457175305 -0.38473232789549294 2.1732251119483603 2.2117889749930666 -0.37054732589444733 2.188493766264169 2.2252046257285687 -0.3754855186793754
2.1719981893973297 2.22533834708922 -0.3128136557210127 2.1986181952324717 2.2166192784988445 -0.3391280694554372 2.1788095005121955 2.1978927573920615
-0.3209736325292834 2.1994486932195128 2.2057754850877918 -0.36978039746065294 2.1883716923317067 2.1992403643327396 -0.3790571564602773 2.1917341252395337
2.189820089941245 -0.34408540679381977 2.208545337872331 2.1966244917264572 -0.37862010167399274 2.174055582699389 2.1849794685687094 -0.5785867897286503
2.0793303874791076 2.0509571836493374 -0.6261143909331404 2.0046757203786316 2.0917085564290807 -0.3346869856427093 2.1776878455247233 2.233942288133491
-0.46773147040753676 2.114189306761281 2.2169164196079207 -0.39770044324211706 2.1918671479469847 2.1978206738157215 -0.3903559108302029 2.1868061842307425
2.2026478409338304 -0.48922840020939806 2.1435535997499087 2.208406192444286 -0.2887127700300168 2.236955293852993 2.2032465256806084 -0.38509180013271926
2.1887384845751 2.1937341659428213 -0.30535260762379124 2.2182909703097877 2.205130342618263 -0.30175321379094316 2.178644030969039 2.244379527125627
-0.3712106463669661 2.1815598256007336 2.2016000256988435 -0.3936409654047785 2.1907470337086714 2.1958829285653514 -0.3582452655400138 2.1629277040567993
2.2235623930603183 -0.3610367510447242 2.19281045863801 2.227046968346008 -0.3891100095575927 2.18046453352574 2.2049390806160303 -0.39824841896561797
2.1505981104698164 2.1961316356261076 -0.3143402646897465 2.1850543839663747 2.2412945194277545 -0.30653517637892747 2.1831429909519207 2.227112858158731
-0.47285098005026605 2.153471027531589 2.222404963452414 -0.43121113036310454 2.171871561498708 2.2155560992603567 -0.307913808756064 2.2283198487318994
2.2143977448626195 -0.4001880956614542 2.152939242024448 2.1970966901743125 -0.3374030143391017 2.1822792925682832 2.2123205131736143 -0.29806131160679283
2.1814600026426008 2.2204463398348393 -0.2848123536849846 2.1768032295963184 2.2108430839876596 -0.30822889040181767 2.183909136532954 2.2390045822114155
-0.44991445498300364 2.125557061300072 2.2120315474911396 -0.4463983646743186 2.133440716278604 2.209576276378439 -0.3851360988464603 2.1915341401362385
2.20709254234197 -0.39234388050232183 2.1500334697590473 2.210741493362201 -0.30972490782369144 2.220733098149667 2.1983278213369295 -0.3131152590439903
2.2179231208021353 2.220935426483574 -0.47272341954163016 2.1571200603375638 2.1647980905799993 -0.3851975789209486 2.1909312472838174 2.207529257064799
-0.3806025156960144 2.188184309140091 2.183737428178674 -0.37722464768541797 2.199236300886568 2.221323727021199 -0.30412561905517277 2.2188555535728183
2.21760706750971 -0.32174579877941706 2.216589540387358 2.1916454846306173 -0.3709326806600064 2.2039294535756677 2.2151818442484963 -0.290221648618744
2.2349985630336326 2.192655722850973 -0.33899679325252396 2.158095314160959 2.219642489221206 -0.3587286261368869 2.185769253797651 2.1697717419676574
-0.36230805045052356 2.1887757127500933 2.224417170061072 -0.3349602377382381 2.1677229693376088 2.2463014821683407 -0.35438427875586936 2.176016524706457
2.1989113054428704 -0.32794284486038994 2.1907099581921785 2.218999276669581 -0.3711265668608521 2.1766225332397218 2.2088912403489385 -0.480485358589658
2.139012220359139 2.1955315537704383 -0.35120696488517145 2.2053361320637674 2.224618814092389 -0.36851118287703727 2.17652708458717 2.1871037125060715
-0.27242895862717986 2.2456030979847355 2.1844214235608312 -0.29668492377111666 2.223737066566691 2.199313790468177 -0.346675160765366 2.200058278017705
2.1948098883281677 -0.29618381790080694 2.200200263417246 2.2290715215540384 -0.4336112758503632 2.1320319011552376 2.1908330319647344 -0.2586318889226563
2.1943718003397374 2.249701418291631 -0.2852991785063959 2.1953529725159386 2.2259421705695863 -0.36518686599153455 2.164404822180655 2.185635578105508
-0.3329296560426593 2.188226516159139 2.2079006858332297 -0.3020938087379247 2.181548168476598 2.21578602105805 -0.28947795480097244 2.217255624711931
2.2409606577062275 -0.291863133104424 2.254497830211722 2.2313259779679524 -0.41818466564103496 2.17103764539595 2.213094632140953 -0.35526353401620264
00000000: d4d4 a235 18bc d1bf 0bae 36c7 c1d5 0140
00000010: 0626 c7ad 3daa 0140 ab76 c298 b36a d4bf
00000020: e0ed f2d4 25dc 0140 b57b 387f 548b 0140
00000030: ac2b ad0c 23c3 d2bf 5f4c 6542 13d5 0140
00000040: d18e c1bd b28e 0140 c45e 04f9 266f d1bf
00000050: f98b eb0a 8bf4 0140 f586 0230 d088 0140
00000060: 04fc 0c30 be32 dabf 4b6d 490b 3a08 0140
00000070: 9e01 19c6 0dbc 0140 71fa 3c60 5c76 d6bf
00000080: 2b31 205d 11c6 0140 b820 5d41 b682 0140
00000090: 2aab 6e23 bcc1 ddbf c72e b38e 8115 0140
000000a0: e96b 60c4 1b5a 0140 a88d 5cf5 7388 d5bf
000000b0: 0017 89f1 f7a4 0140 c1cf a147 45ad 0140
000000c0: 6aa0 b700 edc5 dcbf 0632 6474 fc2b 0140
000000d0: 74a1 bd1d c1bb 0140 ca33 be4f 65cb d2bf
000000e0: 635e 7aca 05e7 0140 da3e 5dc7 9292 0140
000000f0: ff6a 5b16 b417 d6bf 655e 2bcc bac0 0140
00000100: 1879 5c92 dc78 0140 169b 8157 749f d8bf
00000110: 2c50 f5d8 c362 0140 19fd 096b beb1 0140
00000120: db8f 9521 0cb7 d7bf f6d5 0c05 0982 0140
00000130: 074c 3315 38cd 0140 725e b669 f407 d8bf
00000140: 4376 3396 4060 0140 5f43 fa30 7ecd 0140
00000150: ce17 4491 2305 d4bf e44f e722 c596 0140
00000160: 6baf 66e3 a2bb 0140 bbde dd37 46b4 d5bf
00000170: d24f e7ac 336e 0140 d0e9 48cc 4895 0140
00000180: addc a5fd d48a d4bf a9dc 748e 7898 0140
00000190: 312a 169e 6da5 0140 9ae7 7266 7baa d7bf
000001a0: 7074 9004 c981 0140 64d1 0655 0b98 0140
000001b0: 03f2 93f2 7842 d8bf 9e72 abe6 ab88 0140
000001c0: 155f 3365 c084 0140 c175 4dcc 7e05 d6bf
000001d0: d228 6fd1 19ab 0140 4976 8cdc af92 0140
000001e0: 5412 93ce 4f3b d8bf 710a db40 7764 0140
000001f0: f878 ff83 d67a 0140 a207 7971 c883 e2bf
00000200: 096a 5ef8 77a2 0040 4f29 6a3d 5c68 0040
00000210: 089c 130c 2109 e4bf 47e4 906c 9309 0040
00000220: 9b02 15b2 d1bb 0040 51dd 6ef6 826b d5bf
00000230: 3167 eb9a e76b 0140 607a 6522 1ddf 0140
00000240: 9376 2dfa 4fef ddbf acbd 5015 dce9 0040
00000250: 9373 01ad 3ebc 0140 1e18 558f ec73 d9bf
00000260: 6cdf aca4 f188 0140 f416 6401 2395 0140
00000270: 9139 b45b 97fb d8bf 56b1 9f3d 947e 0140
00000280: 9553 cbd4 059f 0140 f41e cba2 844f dfbf
00000290: 0331 016e ff25 0140 1fa8 a6dd d0aa 0140
000002a0: fdda 4d20 457a d2bf 8fb3 2dd1 48e5 0140
000002b0: 3897 e6b6 3fa0 0140 70c7 e113 58a5 d8bf
000002c0: 26f9 9552 8982 0140 f0bc 967f c48c 0140
000002d0: 2e85 dfa9 e58a d3bf f0f0 1356 0fbf 0140
000002e0: a4b3 8760 1ba4 0140 d57a 2cb6 ec4f d3bf
000002f0: e019 f5eb dc6d 0140 3888 e640 7df4 0140
00000300: 56ae 844c eac1 d7bf eac7 49a3 d573 0140
00000310: 8dfe 6979 e09c 0140 8be1 31e0 6931 d9bf
00000320: b8b3 7c61 a686 0140 5b43 a011 2b91 0140
00000330: 8a3c dc8c 7ded d6bf 624a 440a ad4d 0140
00000340: fd79 7614 dbc9 0140 2a09 99e3 391b d7bf
00000350: 866a b135 e08a 0140 cd9d 3d00 fed0 0140
00000360: a226 66ab 2de7 d8bf c9a5 ac63 9771 0140
00000370: 6358 c719 b7a3 0140 b906 c9ef e67c d9bf
00000380: 4375 3ac8 6c34 0140 0ccd 8576 ad91 0140
00000390: f623 2aa1 261e d4bf a1ef f8ca fd7a 0140
000003a0: 812b 2dd2 2bee 0140 dcbf 67b7 459e d3bf
000003b0: 7e0a 25ac 1377 0140 bb57 d28b 20d1 0140
000003c0: e0a2 ccc1 3043 debf b40d a104 4f3a 0140
000003d0: 34f8 e340 7cc7 0140 a02a a591 f698 dbbf
000003e0: c7fe 7d32 fe5f 0140 6636 e679 75b9 0140
000003f0: a005 a61e dcb4 d3bf 3fa6 5a5b 99d3 0140
00000400: 382b 342a 16b7 0140 6653 c787 ae9c d9bf
00000410: 0729 9635 3839 0140 9096 f36d a793 0140
00000420: f220 0ad0 0298 d5bf e38c 82d8 4e75 0140
00000430: 0dce e218 d5b2 0140 6675 63c0 6f13 d3bf
00000440: 6d0e 474d a173 0140 86e8 e05e 79c3 0140
00000450: 0ab9 2498 5d3a d2bf 048c c7cf 176a 0140
00000460: ab84 b27f ceaf 0140 be52 fdaa 05ba d3bf
00000470: d1c1 765a a578 0140 9289 013c 7be9 0140
00000480: 1c94 89ff 65cb dcbf 8186 800f 2401 0140
00000490: c78e 9198 3db2 0140 b0e6 5072 ca91 dcbf
000004a0: abf8 c25d 4911 0140 b980 a853 36ad 0140
000004b0: 147e 43e1 11a6 d8bf fa9e 1f0d 4388 0140
000004c0: 84d5 8422 20a8 0140 dcc3 e281 291c d9bf
000004d0: 365d 6fbf 4433 0140 f334 6f3c 99af 0140
000004e0: e8ff 766b 88d2 d3bf a494 edb6 0fc4 0140
000004f0: 7b3b 94e5 2c96 0140 8c3d 5e95 140a d4bf
00000500: 7419 277a 4ebe 0140 b732 faca 79c4 0140
00000510: 8103 bfba 1941 debf 2590 8529 c841 0140
00000520: efdf 4ba9 8151 0140 c5af fdbe 13a7 d8bf
00000530: a8f2 36f6 0687 0140 b073 6019 05a9 0140
00000540: 2f24 6ca7 ca5b d8bf 3004 6bc6 6681 0140
00000550: e1a0 2854 4b78 0140 9c74 43d9 7224 d8bf
00000560: e0de a333 0998 0140 3d14 cb5f 45c5 0140
00000570: 26ef ed4c cb76 d3bf 5625 2957 37c0 0140
00000580: 4ea9 32c6 a8bd 0140 f582 d8b0 7b97 d4bf
00000590: 7af4 044c 93bb 0140 0b51 876d 7d88 0140
000005a0: 20f3 1c6d 5cbd d7bf 9f63 eec3 a5a1 0140
000005b0: 0cec 3d42 b1b8 0140 4a28 5ad2 fd92 d2bf
000005c0: 0bb1 36ed 46e1 0140 e241 6815 8f8a 0140
000005d0: 50fb 1d9b 1fb2 d5bf fec6 df79 c743 0140
000005e0: 0c23 e0eb d3c1 0140 7767 59e9 68f5 d6bf
000005f0: 4e4e 2d97 747c 0140 cf49 7c49 b15b 0140
00000600: 13cd f01a 0e30 d7bf 7053 44d7 9c82 0140
00000610: dd95 b03a 9bcb 0140 97f3 a210 fd6f d5bf
00000620: 8cbe e023 7f57 0140 6ef4 56e9 6cf8 0140
00000630: bd45 de65 3bae d6bf c55b 095a 7b68 0140
00000640: 5174 7dcf 5e97 0140 227c 68fc 03fd d4bf
00000650: cda7 4bf1 9286 0140 e725 59b1 82c0 0140
00000660: 0406 d6a4 89c0 d7bf 9e02 2013 b969 0140
00000670: acc1 ad2b cfab 0140 cc5c 56a9 45c0 debf
00000680: aa7e 6170 b21c 0140 a43d e6d8 7290 0140
00000690: 74ca 13c7 2c7a d6bf 4935 1f45 87a4 0140
000006a0: b3be e4f2 04cc 0140 97b2 aaed af95 d7bf
000006b0: ed47 3908 8769 0140 de63 313b 307f 0140
000006c0: 6e5f f2de 796f d1bf 3320 cdc1 fef6 0140
000006d0: 1801 77f0 b179 0140 740b 34c3 e2fc d2bf
000006e0: 8f74 bea8 36ca 0140 f69e 1dd4 3198 0140
000006f0: 94a8 7403 ed2f d6bf 7c0a 8b27 b899 0140
00000700: 8474 9a7c f88e 0140 b441 dff8 acf4 d2bf
00000710: a438 8098 029a 0140 0c28 2c73 23d5 0140
00000720: b410 3d82 49c0 dbbf 71ec cbbd 660e 0140
00000730: cc47 fa77 d386 0140 6a08 28c4 6c8d d0bf
00000740: 5fca 6dcd 128e 0140 759e 0a75 63ff 0140
00000750: 45ae 507c 5742 d2bf 0a0f 2138 1590 0140
00000760: ab11 cbc4 bace 0140 2931 97bb 385f d7bf
00000770: 9b90 b479 b350 0140 687f 8781 2e7c 0140
00000780: 8f97 2430 b84e d5bf ed25 59e7 7c81 0140
00000790: eec1 b3d5 c7a9 0140 2e9f 3645 8155 d3bf
000007a0: a50b b286 cf73 0140 be06 7b05 eeb9 0140
000007b0: 031f 328b ce86 d2bf 0e14 5884 f0bc 0140
000007c0: 66c4 03c8 7ced 0140 b6dc e5b4 e2ad d2bf
000007d0: 674c 8d28 3609 0240 59b3 306f c1d9 0140
000007e0: f27b a79d 89c3 dabf 34e2 2afc 485e 0140
000007f0: 04fd 5ff5 6ab4 0140 ffe6 0343 a3bc d6bf
