HPC_Results/B0105+64_Local_Periodic_log2.npy (npy, 201680 bytes, 1 tensors)

array f8 [8400, 3]
000000 74 96 20 3c c4 e4 e3 bf 22 8d a9 05 26 b7 ff 3f
       -0.6216756033288235 1.982213995092771
000010 a5 a3 77 09 f2 87 00 40 a8 74 13 2a 67 bf e2 bf
       2.066379617656326 -0.58586462228745
000020 d3 bd a4 1d c2 be ff 3f 3d 1e 82 6c c5 d9 00 40
       1.9840718419981058 2.106333587380304
000030 31 eb a4 ac b0 9f e4 bf 2e 84 c8 24 cc de ff 3f
       -0.644493424602251 1.9918939053388942
000040 a6 7b b4 bb 14 7f 00 40 75 da 29 9a 0b fb e2 bf
       2.0620512642339746 -0.5931451807981164
000050 e2 12 56 e8 f6 a8 ff 3f b1 e9 ad 44 a2 65 ff 3f
       1.9787510944017233 1.9623129542147633
000060 42 8d 72 de ca 8d e3 bf 3c b0 0e 01 4a d7 ff 3f
       -0.6110586495091541 1.990060810213449
000070 7f 19 1a f6 52 4d 00 40 f7 4a 65 4b b2 ea e3 bf
       2.0377558924403156 -0.6223994705745487
000080 c7 a2 15 b0 9a b8 ff 3f a2 60 e8 4d 32 ea 00 40
       1.9825693968106621 2.114353760389421
000090 61 cc e1 58 48 2b e4 bf 27 6d e0 a2 36 b7 ff 3f
       -0.630283521268563 1.982229839550948
0000a0 e0 3a 74 15 c2 fd 00 40 8f c8 3b 29 d9 69 e3 bf
       2.123905341729696 -0.6066709332792629
0000b0 ba b7 bb 1e 76 cc ff 3f 8e 34 ca 94 cf 93 00 40
       1.9874173355596967 2.072173273487869
0000c0 1c 8a a9 7e 1c 23 e4 bf 83 a9 57 cc c0 c4 ff 3f
       -0.6292860483047806 1.9855354292036231
0000d0 44 08 91 61 c8 ef ff 3f b2 8b 0a 89 3b 8f e4 bf
       1.9960407077019378 -0.6424844433389494
0000e0 8c ef 5b d3 a9 8b ff 3f 9e 93 5f 94 35 5e ff 3f
       1.9715975052085666 1.9605003162225567
0000f0 ac c8 53 d3 84 1d e3 bf 2a b0 5b 17 75 c5 ff 3f
       -0.5973533751951172 1.9857073700359344
000100 76 96 5d 6d b9 e5 00 40 0e 8e 52 c1 a9 48 e4 bf
       2.112170080584117 -0.6338700080709161
000110 10 4e ba d0 41 c4 ff 3f d0 e5 08 03 b1 91 00 40
       1.985414328902042 2.071138404568707
000120 43 43 bb bf 8d da e3 bf 31 9b 67 ac 7a e3 ff 3f
       -0.6204289192920459 1.9930369123992018
000130 f0 39 64 db c2 cd 00 40 3b af 6e 78 86 55 e4 bf
       2.100469316478886 -0.6354400970644528
000140 6f 74 fe 40 36 d3 ff 3f 56 fc 2e 02 79 a1 ff 3f
       1.98906541240947 1.9769220433515975
000150 5c 21 f4 e9 8d 19 e5 bf b2 b9 71 6f df 93 ff 3f
       -0.6593694276244082 1.9736017564097037
000160 9a 6b 3f ff 45 8a 00 40 eb eb bc 9c 61 d8 e6 bf
       2.0675163212994905 -0.7139137326515742
000170 1d 4f d1 2a 70 f7 ff 3f e5 1b d6 d9 fd 60 00 40
       1.9979097054064774 2.047359182211482
000180 94 c5 ea da 1b c2 e3 bf 32 ce 6a 62 83 ea ff 3f
       -0.6174449229931036 1.9947542042181223
000190 88 c0 1b 20 4f 9e 00 40 d2 5b 1c 04 c9 0e e5 bf
       2.077299357268263 -0.6580548363007159
0001a0 b3 d2 c3 6c 56 ea ff 3f 48 9e fa 13 ec 0f 00 40
       1.9947113274221635 2.007774501882327
0001b0 59 48 30 8a ca e9 e3 bf bc 38 39 35 29 b6 ff 3f
       -0.6222889613147898 1.9819728926700426
0001c0 92 2c 08 9f 73 7e 01 40 30 f9 13 87 6b 97 e2 bf
       2.186743967472986 -0.5809838903658484
0001d0 0e ac f8 d1 e2 ac ff 3f 3e 6c 03 0f 3a 27 00 40
       1.9797085000998353 2.0191537068290293
0001e0 aa 50 72 f1 ab 10 e2 bf 38 86 88 73 18 fc ff 3f
       -0.5645351138832855 1.999046756078668
0001f0 cf 5b 05 90 d3 31 00 40 62 ea 56 b1 22 24 e3 bf
       2.024329304851086 -0.5981610740339642
000200 51 8f 43 85 23 ce ff 3f cf 71 f8 46 fa 94 00 40
       1.9878268437978088 2.0727429909295334
000210 21 d3 e3 84 a9 16 e3 bf 8c ec ee ac ff bf ff 3f
       -0.596516379881539 1.9843746905524169
000220 06 d1 f7 4d 93 00 01 40 07 c0 0f 4d f9 ef e3 bf
       2.1252809611561387 -0.6230436806781662
000230 4f 63 65 5d 9c b8 ff 3f 2d 05 c5 b8 37 80 00 40
       1.9825709961207456 2.0626062808156775
000240 b4 a6 f6 a8 66 e3 e3 bf 73 33 cf be 60 9e ff 3f
       -0.6215089130466454 1.9761664823047027
000250 79 50 c0 6b 3a a8 00 40 23 00 00 9c 62 9b e4 bf
       2.082142679029911 -0.6439679190516511
000260 a5 f3 76 28 59 ba ff 3f 71 a1 49 b5 3a 24 00 40
       1.9829951840067477 2.0176901019187246
000270 b4 4f 47 07 d9 1e e4 bf 9a 91 9e 6a 9c b9 ff 3f
       -0.6287655965957044 1.98281518600661
000280 fc cf ee 0b 75 14 00 40 62 c2 84 22 da 1d e2 bf
       2.0099888736967824 -0.5661440538588745
000290 2f 6d e1 fa 1b c9 ff 3f 6b b7 66 b8 ab 90 00 40
       1.9865989494345049 2.0706400305124837
0002a0 b3 59 32 34 14 ed e4 bf 06 a3 41 45 2a c5 ff 3f
       -0.6539402980295591 1.985636015446461
0002b0 49 ac 29 e3 27 72 00 40 be 3f a9 ea 69 74 e4 bf
       2.055740141591319 -0.6392106612420247
0002c0 0d f8 15 21 4d aa ff 3f cc 85 d9 a6 ed 89 00 40
       1.9790774624266334 2.067347816003098
0002d0 4c 37 e8 be 1d 2b e2 bf 66 f9 08 68 45 d5 ff 3f
       -0.56776320730726 1.989568144213615
0002e0 f3 c3 f5 fa f1 b2 00 40 db 7b fa 24 4c b0 e5 bf
       2.0873756033183724 -0.6777706835017584
0002f0 1a a8 68 be be c4 ff 3f 64 a7 fa 38 50 d2 00 40
       1.9855334699482285 2.102692074918126
000300 b7 a5 de cf 3c 36 e3 bf 0a ef bd ad 6c cc ff 3f
       -0.6003707942920106 1.9874083315652933
000310 ab 8a d7 a8 75 c9 00 40 d4 5a 9e 68 77 f0 e4 bf
       2.0983689490106676 -0.6543538134891045
000320 5e 2d ff 78 37 de ff 3f 84 95 1d 0e f3 0b 00 40
       1.9917521215855554 2.005834684636911
000330 8f 66 42 8b f2 d5 e2 bf 6f 11 f5 0b 47 c9 ff 3f
       -0.588616630545589 1.9866400210458683
000340 76 61 fe 88 d2 74 00 40 20 0f e2 2c dd a7 e4 bf
       2.0570421888953048 -0.6454912068006458
000350 8b f3 36 1c 8b d2 ff 3f d6 be 1e e6 7d 24 00 40
       1.988902197087756 2.0178182581074493
000360 79 7c a3 c5 b3 8a e3 bf e2 44 dd f2 69 d8 ff 3f
       -0.6106814251069316 1.9903354155433637
000370 d3 e3 6b 92 3c 5e 00 40 0d 95 4b c6 92 40 e3 bf
       2.0460139693427464 -0.6016324875787703
000380 e8 7c 90 7a 9d df ff 3f 3f 64 3d cf d9 89 00 40
       1.992093542830668 2.067309969960234
000390 d8 c1 1e 46 db 16 e3 bf 62 29 fb 02 dc bb ff 3f
       -0.596540104821595 1.983364116330073
0003a0 07 19 2e 79 dd 36 01 40 4f 20 5e 25 58 df e4 bf
       2.1517896144097253 -0.6522637109601507
0003b0 f7 c5 f6 24 65 ba ff 3f 59 86 0e 7e a3 62 00 40
       1.983006615057432 2.048163399523031
0003c0 1b a0 1f 98 81 ae e3 bf df 31 c8 b1 00 b5 ff 3f
       -0.615052029720576 1.9816901154146007
0003d0 75 64 30 e7 ae 1b 01 40 21 f0 d8 ff 03 fd e4 bf
       2.1385171949046318 -0.6558856961269194
0003e0 55 48 92 6e c1 0d 00 40 fa f2 69 8c 57 77 ff 3f
       2.006716598357381 1.9666362271229318
0003f0 bb 01 29 0a 28 b7 e3 bf 54 8c 32 25 35 d6 ff 3f
       -0.6161079595986431 1.989796777060083
000400 08 f1 7d 20 6b b2 00 40 50 b5 7e c7 c4 a0 e3 bf
       2.087118390887671 -0.6133750816713164
000410 5b f9 fe 04 1f d8 ff 3f 48 ad 89 46 50 3e ff 3f
       1.9902639575153305 1.9527132754690957
000420 67 b0 43 8a 1d 0d e5 bf f8 fe 2c 02 42 bf ff 3f
       -0.6578509998776213 1.984193809985241
000430 f6 f0 a5 ee c9 c7 00 40 ce 46 89 f6 4f 91 e2 bf
       2.0975531238929035 -0.5802383246575233
000440 ac 2f 8c 70 89 c6 ff 3f 20 90 f4 c5 44 aa ff 3f
       1.985970916403839 1.9790694935445643
000450 18 ba 4c c2 12 9f e5 bf 3c 1d fc 1c fc c9 ff 3f
       -0.6756681246677685 1.9868126995296072
000460 ce 9e e0 9b 91 46 00 40 c3 52 1f 07 de 49 e6 bf
       2.0344574144290624 -0.696517003928044
000470 b2 94 de c5 27 c6 ff 3f a2 7a 66 c9 37 7e 00 40
       1.9858777741695062 2.061629842224037
000480 ef 67 bd 7d 62 10 e4 bf 6b c8 94 cc 3f a0 ff 3f
       -0.6270000892502575 1.9766233436062304
000490 b8 14 9b ac 32 4b ff 3f 3f fe e8 fe b6 2b e4 bf
       1.9558588735974762 -0.6303362826074091
0004a0 21 47 26 06 3c a1 ff 3f 2f 83 da 2e 55 82 00 40
       1.9768638839927422 2.0636390362200454
0004b0 c0 61 59 75 30 00 e5 bf 1e 25 57 0b 25 88 ff 3f
       -0.6562731067634147 1.9707384531960268
0004c0 b8 2e d5 7e d6 df 00 40 ec d4 b3 d7 75 fb e2 bf
       2.1092958363350043 -0.5931958401621649
0004d0 ff 23 97 8a 9b bd ff 3f 47 7e 73 0b c2 2d 00 40
       1.9837909139334895 2.0223427672024488
0004e0 0c f4 69 13 66 54 e3 bf 8f b6 fe 4d 1f d3 ff 3f
       -0.6040525798013063 1.9890435263327253
0004f0 21 6f 01 ae 7b 3b 00 40 13 15 38 cc 13 d4 e2 bf
       2.0290444940745975 -0.5883883465436689
000500 9c 32 d1 c3 ef cc ff 3f 7b 39 f9 11 a8 9f 01 40
       1.9875333451374564 2.202957287233571
000510 3f b1 1b b3 1a d9 e3 bf 95 96 56 af 64 d2 ff 3f
       -0.6202519891935835 1.9888655518674672
000520 b6 a4 41 d3 1d ac 00 40 3c 3e 0f b4 59 2e e4 bf
       2.084041262093332 -0.6306580082691151
000530 ee 1d 82 78 f4 bf ff 3f 7c 4c 69 98 45 10 00 40
       1.9843640048364892 2.0079452426085123
000540 81 1b 19 dd 50 56 e4 bf 8b 91 aa 6e 2a af ff 3f
       -0.6355366056749149 1.9802650759603206
000550 1e 49 68 2d 91 40 00 40 8a a7 76 70 c8 26 e2 bf
       2.0315269038629955 -0.5672342487862221
000560 90 e0 68 6e 0d 10 00 40 b5 e1 4e 95 99 79 00 40
       2.0078381181484204 2.059374968023088
000570 16 3a 5e 19 f0 8b e3 bf 6b 1d e4 63 b6 f9 ff 3f
       -0.6108322616071884 1.9984649564738344
000580 ea 18 d0 ca c7 94 00 40 b4 b2 ff 90 21 08 e2 bf
       2.0726466984516394 -0.5634925682075704
000590 67 05 48 e7 64 c4 ff 3f 0b 6c 45 ff 14 32 01 40
       1.9854477915217446 2.149454111391156
0005a0 e9 d9 06 8f cb 4f e1 bf b3 5f be da a0 e2 ff 3f
       -0.5409906190387207 1.9928291840242138
0005b0 0a 00 12 bd c6 1b 00 40 66 aa 76 40 f7 02 e3 bf
       2.013562657462903 -0.5941120394757717
0005c0 b6 5e d8 75 91 9f ff 3f bc 59 9f d3 fb 05 00 40
       1.9764570811584412 2.0029217274670525
0005d0 a0 68 14 68 e9 33 e5 bf 64 ff dd d9 23 b7 ff 3f
       -0.6625868828589496 1.9822119245945595
0005e0 1b 83 39 32 c9 2b 00 40 c1 95 fd 61 26 53 e4 bf
       2.0213798450280485 -0.6351501382711647
0005f0 30 58 ba 5d b2 e0 ff 3f 6e 03 d8 dd 2c eb 00 40
       1.9923576031919872 2.114831669954973
000600 4e 87 96 02 f1 95 e5 bf 8b 2b 61 1b ea bd ff 3f
       -0.6745533991381565 1.983865839911888
000610 87 9b d9 d7 b6 a0 00 40 58 6d 64 ee 5e 7d e2 bf
       2.078473745659213 -0.5778040557956201
000620 51 58 ef aa 7a 03 00 40 04 0a 65 3f 00 e4 01 40
       2.0016988138477605 2.236328597327203
000630 fa a8 1d 51 77 d8 e4 bf e5 d2 91 41 72 b5 ff 3f
       -0.6514240822118886 1.9817984162629554
000640 28 1b af 35 c9 52 00 40 da a4 20 e0 5a 27 e5 bf
       2.0404228395522246 -0.6610540750017677
000650 96 6f 56 e4 c9 94 ff 3f aa 9d 33 11 c2 cb 00 40
       1.9738253516615933 2.0994912475468555
000660 b7 93 46 e9 16 32 e4 bf 28 ad 6e 55 b2 a2 ff 3f
       -0.6311144405523156 1.9772208535385492
000670 62 67 4a 48 5c c8 ff 3f e6 e0 99 3d e5 92 e3 bf
       1.9864161323407292 -0.6116815760751961
000680 f2 06 cf bc f7 c5 ff 3f 1a 15 45 61 cf 70 00 40
       1.9858319640483697 2.0550830458838734
000690 c2 44 9b cd 53 d7 e4 bf 7b cc 6c 93 7a 86 ff 3f
       -0.6512850776436141 1.9703317412175056
0006a0 e1 ca e0 b8 56 36 01 40 3f 44 c5 0d f0 90 e3 bf
       2.1515325969315744 -0.611442591567659
0006b0 99 27 f5 c3 1e bd ff 3f f0 14 c0 39 02 c6 00 40
       1.9836719183535705 2.0966839324706754
0006c0 f2 0c 2c ad e6 18 e5 bf db 9e 51 d0 6a ba ff 3f
       -0.6592896826045076 1.9830120217756562
0006d0 60 79 3d 57 58 cd ff 3f ad 19 67 58 4f ac e2 bf
       1.987633076459666 -0.5835339285484246
0006e0 d7 47 00 6d 94 b3 ff 3f 6e ca a3 8b af d3 00 40
       1.9813427217345543 2.103362170158383
0006f0 21 f1 5a 37 1a 8b e2 bf 3e f0 07 c5 a2 bf ff 3f
       -0.579480274310786 1.9842860886119662
000700 27 0a 1c c6 8d 97 00 40 74 81 d4 86 b9 86 e1 bf
       2.074000880938246 -0.5476958878898999
000710 17 03 6c a1 6e cd ff 3f 5d f9 36 ff 81 94 01 40
       1.9876543336433252 2.197513574471641
000720 27 a5 49 2e 44 54 e3 bf 47 43 47 cc b5 94 ff 3f
       -0.6040364173942735 1.9738061885475007
000730 d9 b3 00 29 15 75 00 40 04 84 de f8 48 3a e3 bf
       2.05716926606554 -0.6008648739554023
000740 7c a3 65 df a3 c9 ff 3f c9 64 ad 7b 6e 60 01 40
       1.9867285467573472 2.1720857298174434
000750 22 74 6d 05 13 b4 e1 bf 60 ba 1a c5 5e c6 ff 3f
       -0.5532317262656117 1.985930223406875
000760 49 42 6c 38 3c 74 00 40 ee b1 58 30 e3 b5 e3 bf
       2.0567554863012316 -0.6159530586497206
000770 94 ae 45 3c 9d c3 ff 3f 12 f6 54 e8 10 4f 00 40
       1.9852573732740995 2.03860646733552
000780 53 37 68 d6 d8 f8 e1 bf 3d 85 c5 3d 68 d5 ff 3f
       -0.5616268336905058 1.9896013653709155
000790 7d a8 4a 23 e1 2f 00 40 6f f9 50 39 4e 1a e4 bf
       2.023378635135542 -0.6282111281832793
0007a0 54 fb 74 cb af b4 ff 3f 4e 31 ce 39 1d 04 00 40
       1.9816129634416102 2.00200886879444
0007b0 d0 ba 09 9a be 45 e3 bf d1 e3 87 37 ba c9 ff 3f
       -0.6022637375407047 1.9867498559162764
0007c0 cb a2 ff 1e d3 9a 00 40 f4 56 30 ac dc 40 e3 bf
       2.0755979940189255 -0.6016677249014877
0007d0 76 79 14 eb b4 be ff 3f f0 3c 31 1d cb 09 01 40
       1.9840592558681158 2.1297819405223137
0007e0 24 a7 be 8d cc ef e3 bf 4e 07 3b 36 fd 9f ff 3f
       -0.6230223434879218 1.9765598410017051
0007f0 2f a4 b9 99 e6 b5 00 40 cd 2a a8 ca 2e ca e5 bf
       2.0888187417772524 -0.6809305151121748
