HPC_Results/B0105+64_RBF_log2.npy (npy, 334480 bytes, 1 tensors)

array f8 [20900, 2]
00000000: 9fd2 1aaf 8eb9 f0bf d80f 143f a2cb ff3f
00000010: 98e0 f3c8 d223 f2bf d1da fac4 4390 ff3f
00000020: 4e3a 3a04 42b5 f0bf f870 cf9d 47aa ff3f
00000030: c3f9 8aa8 d7c0 f0bf 5a95 b9be 55ca ff3f
00000040: ea08 47e5 2123 f2bf 04eb b5cf 239b ff3f
00000050: 8fc6 6937 9aa9 f1bf 1e9f 4d11 8dc5 ff3f
00000060: c642 6d78 ff1b eebf df5e 2cfc dfde ff3f
00000070: c8da 4078 b411 f3bf 8918 a420 54dd ff3f
00000080: 9abc 3d73 2757 f2bf 7564 a9b8 9baa ff3f
00000090: 7157 217e c869 f1bf 3556 213e dabe ff3f
000000a0: c6ef a22d 9e59 f0bf c945 ab0d f2d1 ff3f
000000b0: 4e03 98ed 3bec f1bf aeff a80a 7eb5 ff3f
000000c0: 53ce c8f0 d2e7 f0bf a2ef ef73 9ac3 ff3f
000000d0: 04d3 56ac 0198 edbf ff2a 9f07 c3ce ff3f
000000e0: 3193 0b34 9ed4 f1bf edd0 5a61 d6bb ff3f
000000f0: f2f8 ba1e ac92 f1bf 7d91 b374 b3d1 ff3f
00000100: bc8a a3e2 84bb f1bf 63e2 70e4 53ca ff3f
00000110: 09b4 e86a 07cf f3bf d77c c97d 619e ff3f
00000120: b8f0 7b51 01db f0bf f000 c554 dcb4 ff3f
00000130: 3e77 5986 a930 f0bf 10cc f411 5be3 ff3f
00000140: 6001 eaba 503b f2bf 4252 5454 b29c ff3f
00000150: 80ad adaa 9224 f1bf d82c 8e6f 5ea5 ff3f
00000160: 7b2c e3bc db62 f3bf f8f8 1169 ea8d ff3f
00000170: 1269 d155 0ab3 edbf 4870 0593 9914 0040
00000180: 76ef ad8e 4e5e f2bf ded1 354c 67ab ff3f
00000190: 1790 9e65 6423 f2bf 0b13 0eb4 9897 ff3f
000001a0: a9b4 6ad8 c36d f3bf dad3 4774 84b2 ff3f
000001b0: c618 1812 b7eb f0bf 4845 8fec 69cb ff3f
000001c0: 22cf 54e7 0304 f1bf 058c d4c8 4bce ff3f
000001d0: 1e2c 0f6d eda8 f2bf 767e 2f1a f1b3 ff3f
000001e0: 0e9b 6d5d d847 f2bf 7366 cfaf bccd ff3f
000001f0: 23f2 4610 c92b f2bf 3450 7257 8ae6 ff3f
00000200: b957 3e17 a5ec f1bf 402e eef2 540f 0040
00000210: 24c7 e4d9 3a60 f1bf 9862 72d8 44a5 ff3f
00000220: 165c 2685 9d61 f3bf 26bf 5c97 4c9b ff3f
00000230: 09ba ab44 8f73 f4bf e7dc 61dc 3298 ff3f
00000240: b10a e320 2360 f4bf faed 84e9 f080 ff3f
00000250: 3d06 ffdc c901 f3bf 627c 2165 89a4 ff3f
00000260: 61cc e9ca 4d35 f2bf 4478 c6ff 4987 ff3f
00000270: 37ba 7ceb a01e f1bf f06c 832d 24a9 ff3f
00000280: 2c23 d08a ab80 f2bf 66fd f14f 7aa8 ff3f
00000290: d71c f704 b2f9 f2bf 23ee b723 27b6 ff3f
000002a0: a081 2915 8868 f1bf 62c2 778f e1f8 ff3f
000002b0: 4d83 3190 b284 f0bf e094 dc15 ccde ff3f
000002c0: 6d5c 395b a551 f1bf fb91 8545 ebb1 ff3f
000002d0: 8e12 5a9f b522 f3bf 0c2d 04c0 bccd ff3f
000002e0: cb21 d282 be2c f1bf 0351 d657 58be ff3f
000002f0: 21f2 2dfc 4997 f0bf 05c6 fd26 edd1 ff3f
00000300: 1de8 a4d5 962d f3bf 280e 59d2 3d72 ff3f
00000310: 833f 6378 c6df f2bf 0062 c089 2cb5 ff3f
00000320: 53ea b68f cfa6 f4bf 2f2f 614f 27b4 ff3f
00000330: 0dae e173 a84e f2bf 98b1 2bb1 8d04 0040
00000340: 0af6 531f a57f f1bf b480 846e 91d1 ff3f
00000350: 61fc 7341 1c78 f2bf 28a1 0a7a 1ab5 ff3f
00000360: 159f 91f2 9e2a f4bf 0d63 74a5 fbaf ff3f
00000370: b3cd 7a1e 89d4 f1bf 2013 356c 88c4 ff3f
00000380: 5328 6243 e912 f4bf 98fc 7384 a2d6 ff3f
00000390: 82c2 0577 ff10 f4bf 9def ad8b bfc4 ff3f
000003a0: 96fe e33f 0bc9 f2bf eddd 2440 56db ff3f
000003b0: 1419 ebf2 ebfd f2bf cfb7 b651 25cf ff3f
000003c0: cb25 203b f3c9 f1bf 5db3 241b 20e3 ff3f
000003d0: addf f17f 419f f2bf 19e5 b0ba 0ede ff3f
000003e0: 364a 825e be63 f2bf 8033 9157 abaa ff3f
000003f0: 174c 6689 cdc2 f4bf f882 32ce 1aa2 ff3f
00000400: 6088 87f3 127a f2bf e6b7 aa48 29c9 ff3f
00000410: 6fed 65ab 08a5 f2bf c4f0 02d0 2e95 ff3f
00000420: a715 141e 390b f3bf 7c5d 0a31 79aa ff3f
00000430: 135c 69a6 e9b0 f2bf 19d4 734d 9790 ff3f
00000440: f6c5 4c25 3570 efbf 052b 289c e8d0 ff3f
00000450: 65dc 99be adc6 f0bf 7982 490d 8dd3 ff3f
00000460: 9635 0cb8 a763 f0bf cebb 7fb9 e8c0 ff3f
00000470: bf4e 43be ca12 f2bf 041d 07fc aec1 ff3f
00000480: 4574 9c4d 70bc f0bf 2440 a8fc aae1 ff3f
00000490: 432d 5810 6776 f2bf f8e4 6fb8 0aa3 ff3f
000004a0: b82a b02c 606c f2bf 962c 64fa 418f ff3f
000004b0: f5fb eb86 e9b5 f3bf ed7b 735f 778c ff3f
000004c0: e3cd c493 1595 f1bf bdfc 80a7 efb8 ff3f
000004d0: b44a 87f7 e396 f0bf f73a 0b84 11bf ff3f
000004e0: 0c66 cf34 4f99 f1bf 4716 fed0 4bae ff3f
000004f0: 5077 dd65 83b3 f0bf a169 765a 6ade ff3f
00000500: d015 dc90 af1f f2bf ddfc 95ca aade ff3f
00000510: f948 f088 4172 f1bf 99bd 7aa9 abcb ff3f
00000520: 4074 5959 0c87 f0bf cf4d 726a ebd6 ff3f
00000530: cb81 eee4 91db f1bf 0e36 e800 3ee7 ff3f
00000540: 98c6 9c1c 20bd f3bf 3e7a d6e2 86ab ff3f
00000550: e58e 7833 49d9 f1bf 1d86 f7cf 92c8 ff3f
00000560: 6a28 50e7 2f7e f2bf 4f35 f734 9396 ff3f
00000570: 5c12 9704 bd38 f0bf 93db 6c8a 5ed6 ff3f
00000580: 57f6 3c1b dfb7 f3bf f8ca b234 9e97 ff3f
00000590: 0bab f71a 86ec f1bf 6130 80aa dfc0 ff3f
000005a0: cc71 f405 badd f0bf 7a31 52c3 00e3 ff3f
000005b0: 3327 238e b738 efbf be4f 1327 f506 0040
000005c0: 316c 9723 040a f2bf d5be b430 dfcc ff3f
000005d0: 1c3e d896 efbd ecbf e276 ece8 9c04 0040
000005e0: eebd 4da9 0b70 f1bf 88f2 b990 27c7 ff3f
000005f0: 4182 69f4 5128 f0bf ab79 dbaf 1de4 ff3f
00000600: 468c ef7c 708e f2bf 96fd b963 c9b7 ff3f
00000610: 5336 6281 dcce f0bf 29c8 f7d8 16b0 ff3f
00000620: 4209 20ba 2ac7 f1bf 1039 ee08 03a6 ff3f
00000630: e1bb a8fc 3328 f1bf 9db8 398e 87be ff3f
00000640: d8b8 91bc 5976 f2bf cc8f 4923 4595 ff3f
00000650: 1601 551a 15cf eebf 6a09 5fd7 bce4 ff3f
00000660: 59e9 59c7 beb7 f2bf 1442 da5f 11b0 ff3f
00000670: fde8 8f8a 41e8 f2bf 5a24 4aff 657a ff3f
00000680: e70d c84e 904c f3bf 3cb4 cac3 3a8b ff3f
00000690: 1cf5 cae8 29bd f2bf a964 a2ed d986 ff3f
000006a0: 999e 2c3a 77ad f0bf 6e8b 6413 e6c1 ff3f
000006b0: d634 230f 0132 f2bf f709 3b0c 46ca ff3f
000006c0: b907 9bf8 b85e f0bf 81e4 8af6 20ba ff3f
000006d0: b992 c9f6 c74b f4bf 511a ee04 10bf ff3f
000006e0: 3ebf b92a 03f7 f0bf f022 de3b 80c7 ff3f
000006f0: a08a 939c 78f7 f1bf e179 d959 fcb2 ff3f
00000700: 1608 ba92 bb6a f3bf aeb9 a234 83a3 ff3f
00000710: 4609 5543 f26d f2bf bb4c 3e21 39b0 ff3f
00000720: 070d 533b 943b f3bf 9d66 b842 04a4 ff3f
00000730: 4dfe 9bad ff28 f0bf 80c8 2402 1cd4 ff3f
00000740: 1b49 8dd4 12c3 f1bf a9f6 d60d dfa6 ff3f
00000750: 3f6f 7c24 e633 f1bf c349 ad22 b698 ff3f
00000760: 1193 75b6 2a87 f0bf 4d9a 4b03 28a9 ff3f
00000770: 3449 2e7b ccf5 f3bf cebe b999 067c ff3f
00000780: b66c 186e 6507 f2bf 2fae 6691 f3bc ff3f
00000790: fcca a6cc 634a f2bf 2f10 6df0 acce ff3f
000007a0: 140f add4 a837 f2bf 72de c151 86ad ff3f
000007b0: b8a3 3376 73b0 f2bf 67e0 ece6 32af ff3f
000007c0: 590d 34f1 f46f f2bf a5c1 54a6 34ce ff3f
000007d0: ee66 9fd1 cae1 f0bf 4a12 0753 c1b1 ff3f
000007e0: 6fe0 108d 0e1a edbf 9613 cebc cb00 0040
000007f0: 06a0 c537 62d9 f2bf fa0c ec19 7c94 ff3f
-1.0453020896940541 1.9872152770994855 -1.133745942088387 1.9727208799865148 -1.0442524113783693 1.9790722050157097 -1.047080667849159 1.9868981790726452
-1.1335772472526124 1.9753759492584217 -1.1039068378999308 1.9857302356630906 -0.9409177162252369 1.9919128275413909 -1.1918224999805478 1.9915353083647764
-1.1462778569801118 1.9791524136874419 -1.0883259703600425 1.9840948512040886 -1.0218793661760954 1.9887562307306885 -1.1201743393905477 1.9818096558010256
-1.0565976529732282 1.9852547196196402 -0.9248054853438537 1.9879789636349299 -1.1144086869255256 1.9833587458534183 -1.098308677711938 1.9886965330743742
-1.1082810261802214 1.9868964122271329 -1.2380441833622646 1.97616719375201 -1.0534680541013994 1.981655436640775 -1.0118804214502712 1.993006773129995
-1.1394812871295343 1.975756005679742 -1.0714289347768897 1.9778732640868864 -1.2116353395856823 1.9721473793320552 -0.9281055141575811 2.010058544734452
-1.1480241368689952 1.9793465592348336 -1.133640667868354 1.9745108636281568 -1.214298100832176 1.9810833494386686 -1.0575476366807819 1.9871615639315952
-1.0634802852991432 1.9878652424747554 -1.1662420520904173 1.9814311049339302 -1.142540326074314 1.9877287738403566 -1.1356897960496404 1.9937842765693974
-1.120274630351089 2.0074862460076304 -1.0859936248275028 1.9778488593057428 -1.2113318635144927 1.9754148399915237 -1.2782128031209388 1.9746578797037786
-1.2734710011142563 1.9689797517629573 -1.1879366524375563 1.9776700926229513 -1.1380136419582174 1.9705295554372393 -1.0699776838988677 1.9787942674509473
-1.1564135954269643 1.9786322710859507 -1.185960788150444 1.9819709201100373 -1.0880204035421244 1.9982619861804314 -1.0323968536906307 1.991893849751527
-1.0824330867233372 1.9809372630780888 -1.195973989933154 1.98772883421299 -1.073423872965679 1.9839709693088146 -1.0369357920418525 1.9887515566919103
-1.1986301751590027 1.9653909889901886 -1.179632635368734 1.9817319279592311 -1.2907252897117771 1.9814828015104913 -1.1442036177276151 2.002223381181647
-1.093663332343001 1.9886640851109805 -1.154323821712545 1.9817147032973228 -1.260405490431315 1.9804645979949698 -1.114388579427083 1.9854816653107221
-1.2546169883885525 1.9899010824154058 -1.2541498803440452 1.9855342346408869 -1.1740829940535256 1.991049051821274 -1.1869925965307333 1.988072699732118
-1.111804228743824 1.9929505405700276 -1.1638808248371604 1.991713265668585 -1.1493514720683726 1.9791673107713166 -1.2975592963382547 1.9770763449270685
-1.1548032296054984 1.9866116369771532 -1.1652914710274123 1.9739215970467265 -1.1902400183620132 1.979119483532343 -1.1681915760470971 1.972800543354657
-0.9824472168458545 1.9885030841712148 -1.048505539450866 1.9891481894520935 -1.0243298711169238 1.9845969434788802 -1.1295878822465253 1.9847860188327227
-1.0460055381474984 1.992594706480312 -1.153906883092376 1.977305145699857 -1.1514589067107135 1.972475030985867 -1.2319121618636448 1.9717935303267453
-1.098897530767197 1.9826504271621126 -1.0368384999352829 1.9841475637401211 -1.0999290526291388 1.9800527728815653 -1.0438264826875248 1.9918006452267962
-1.1327357920248353 1.9918620980750383 -1.0903945302166547 1.987224256543277 -1.032970761319362 1.9899706037584683 -1.1161059324878007 1.9939556155617342
-1.2336732022926409 1.9793766842700644 -1.1155483255942553 1.9864681361872336 -1.1558074031513805 1.9742614811869605 -1.0138521365453448 1.9898362548098916
-1.2323905052175144 1.974516111233866 -1.120245080319992 1.9845883045373045 -1.054132483731439 1.9929206495026777 -0.975673463451335 2.0033972790497208
-1.1274453535359152 1.9875175383166852 -0.898185534113455 2.0022524068034366 -1.0898548711228346 1.9861217168210334 -1.009843783125817 1.9931923741747635
-1.1597752456953159 1.9823697944228562 -1.0505032590912335 1.9804905391033663 -1.111124732066472 1.978030238041871 -1.0723152036186934 1.9840159946138904
-1.1538941732392711 1.9739428881084562 -0.9627786173150834 1.9933441555918656 -1.1698596751362713 1.9804853195420309 -1.1817031300147953 1.9673824283838912
-1.206192310085379 1.9714915893666918 -1.1711825459927416 1.970422676333593 -1.0423500320847892 1.9848385579614063 -1.1372080413159913 1.9868832090147615
-1.0231256209521986 1.9829415922706917 -1.2685012474186534 1.9841461365300754 -1.060305754563117 1.9862062777121388 -1.1229177585852668 1.9811976918932646
-1.2135577899466674 1.9774200492935097 -1.1518423681414602 1.9805232332771954 -1.2020456616745052 1.9775431257498106 -1.0100094586959074 1.989284523366706
-1.1101253798302142 1.9782400646794633 -1.0751706528889853 1.9747830729071303 -1.0329997184100572 1.9787979248736918 -1.2475094615698028 1.9677797322182644
-1.1268057156183153 1.9836307220201765 -1.1431615823937014 1.9879578963891722 -1.138588743940038 1.9798644250530768 -1.168078862882096 1.9802731533545967
-1.1523332044606234 1.987843179446011 -1.0551250637421918 1.9808972590700642 -0.909430766600975 2.000388598479229 -1.1780721834747978 1.9737511646824815
