HPC_Results/B0105+64RBF.npy (npy, 616080 bytes, 1 tensors)

array f8 [38500, 2]
-1.088637639395598 1.9961753887362985 -0.979964474315032 1.9985706652826352 -1.0547736035058441 1.9963590434559906 -1.0025682153686273 2.013427351818701
-1.0451721450530045 2.015556950986702 -0.7953405494863879 2.027533171683697 -0.9747861136766173 1.993637319731372 -1.1244396305289155 2.004049504591414
-1.36436206255676 1.9991649055722707 -0.6321289080922646 2.0345824616781303 -0.7098341642059012 2.0275912779908842 -0.9389777447545163 2.003412323777765
-0.6946153744390589 2.0273473875644137 -0.9706251296565379 2.0011238868695207 -0.9702001282881018 2.0028573451394083 -0.6965659343448168 2.022734413578904
-0.8776954614325855 2.00112849439221 -0.9770658649151212 1.9931598862217497 -0.8856348937387384 2.0025504717228344 -0.8026880056741076 2.0121887660148663
-1.073092706658607 1.9892667081059041 -1.1571393195503152 1.995258647717121 -0.8853772450211469 2.0154071494748655 -0.9928167056604028 2.0069825673103208
-0.8619998693557418 2.0089480205734818 -0.876998944640108 2.0171197344246368 -0.9908804450876428 1.9949820292956602 -1.2638844741008084 1.982271139363105
-0.9779620146822667 2.0027476168081675 -1.0483531203318024 1.9946510140897904 -1.026369790217552 1.992388892067269 -1.1063572840870854 2.0025181258371
-0.9288142680392041 2.0001862578296334 -0.8522062198685233 2.0263372628742657 -1.0415031136534476 1.998796788780042 -1.0125992297055384 2.010576439307488
-0.8586561810298327 1.9974131037084515 -1.102692468022472 1.9867290321220705 -1.0991237671625824 1.9875636918794983 -1.0480898020251384 1.9970318457097964
-0.9155730341023001 2.010941966977546 -0.6981548573959326 2.0432585929781832 -0.758258196809031 2.022918829291505 -1.0691466753261687 2.0074972738629957
-1.093221434012621 1.9941367088770563 -0.8360477526012584 2.0119574323474323 -0.7843690051581059 2.0190750823262404 -0.9175901937158826 2.005689027073867
-0.8985193467945939 1.996883020616473 -0.8822877545639366 2.0146782626902655 -0.9638254621113076 2.0128561346609937 -1.0259983037831477 2.0015253116680327
-1.0952550804498702 1.9873033311973107 -0.933165061838381 2.0033939104933096 -0.9402253862446888 2.003080087455945 -1.1158163708626772 1.9949326555975273
-1.1167499971518011 1.9933561684633843 -1.071844353579316 1.9888618518414898 -0.9672279346395547 2.003960042000916 -0.9823486652277936 2.0044744187575043
-1.1858485592145873 1.9857779843925343 -1.2006389657182455 2.01309825543004 -1.0745128080702613 2.026607890013522 -0.8803749476543985 2.016188473636791
-1.2539813452134643 2.0038238682107163 -1.0670706540229786 2.0022887221482164 -1.185158250870557 1.9920597726921008 -0.9439545675276053 2.0214240785413673
-0.9132519381440034 2.0109946100720375 -1.1824322563215297 1.9811168308678373 -1.03875095432772 1.993486658455695 -1.044224234891331 1.9941996201934724
-0.996477875766463 1.9892799561348382 -1.0594458649891207 1.9792255728572474 -0.8294338911295155 2.026205536844393 -0.9890261825952456 2.0016447402187922
-1.078267949177394 1.9866737027612411 -1.1159118503090724 1.984334609352707 -1.0533444809237158 1.9995404825625829 -0.991038856864035 2.0053706867855867
-1.1693719328505228 1.9981334003283147 -1.0476154081977602 1.9912973656832236 -0.8829649063342949 2.0081458089033974 -0.8846710407479634 2.0014558093911994
-1.0344193773331203 1.9970536148482103 -1.061670428627951 1.9936273136107685 -0.5673541492937574 2.044893819432069 -0.8800486572434487 2.016910994053854
-0.8758649056017441 2.0155402244350773 -1.0549652903679412 2.000986886963853 -1.2347112247151333 1.976924464068915 -0.7348219594877403 2.0265678808972454
-0.9521759437902644 2.00646744120482 -1.0523765985171516 1.9973924377274577 -0.915984135792901 2.011244625624493 -0.8740453209357033 2.024990310929127
-0.8577604196797308 2.015493253223617 -0.7911337615652658 2.0245637132235736 -0.8209662342130197 2.0216180436818747 -1.0438430390987374 1.9896607429233084
-0.8874591793054215 2.0315559486732795 -1.158731579515047 2.0015569518977085 -1.0210265255447706 2.003613586403079 -1.0271949218625944 1.9899695836821765
-1.0423947188941642 2.0064980075473833 -0.8504134171062308 2.015321661044392 -0.8823074707957392 2.005278815944678 -1.249625101872798 1.9987713155048143
-1.1450639803835312 1.9929405240325735 -1.005851386089825 1.9933022750349882 -1.1347246147142283 1.9851324124196168 -1.1295551458181072 1.9825206474398902
-0.9920684757763836 1.994253354660609 -0.7257286738015951 2.020013123937705 -0.8316078084913173 2.030790460543341 -1.119293200092451 2.003969939122014
-0.9277405363617867 2.004362242518017 -0.710564597059172 2.031874260849184 -0.7738859939183569 2.0196950590475935 -0.8869992788114746 2.020522803971373
-0.9321404617130108 2.00538029908532 -0.8182565603271278 2.020560280012012 -0.7805623740604732 2.0193815084554294 -0.8734559670505113 2.0023782915391557
-0.7971161531645092 2.0073329610692885 -0.971430652993241 1.998465169028812 -0.867222154870584 2.0085353096420393 -0.9588212584700913 1.9993777651141136
00000000: 3861 264d 0f6b f1bf 653d bb9a 55f0 ff3f
00000010: bc98 0d75 de5b efbf 6024 e23b 25fa ff3f
00000020: e3dd 3b49 5ae0 f0bf 277a 2b2e 16f1 ff3f
00000030: 0547 10f8 840a f0bf 3577 a7cc 7f1b 0040
00000040: cd15 5b6d 06b9 f0bf f6b4 9d52 dc1f 0040
00000050: 2c41 2706 6e73 e9bf 397e bf4f 6338 0040
00000060: 97c0 daa5 7231 efbf 294d 053f f0e5 ff3f
00000070: 122b f768 b4fd f1bf f047 4e1b 4b08 0040
00000080: aa59 6950 6dd4 f5bf bbe6 0b57 94fc ff3f
00000090: 5399 6367 663a e4bf c761 6f2b d346 0040
000000a0: 8021 1b23 f6b6 e6bf 6b01 a5c6 8138 0040
000000b0: 398f 2c0e 1b0c eebf 1d3b 580a fd06 0040
000000c0: 3677 9005 4a3a e6bf f5c2 39e8 0138 0040
000000d0: 6f9e 916e 5c0f efbf beca 8a3d 4d02 0040
000000e0: 1d51 b223 e10b efbf ca6a 5f12 da05 0040
000000f0: f598 70a4 444a e6bf 6385 5661 8f2e 0040
00000100: 2f6b d6ca 1416 ecbf eb10 f4a7 4f02 0040
00000110: 1626 fba1 1f44 efbf 0c58 f09e fbe3 ff3f
00000120: f6bc 19fd 1e57 ecbf 901c 852e 3905 0040
00000130: 4b60 a8c1 9eaf e9bf b14c 7b6c f618 0040
00000140: 23cc 0a42 632b f1bf 0b62 e553 09d4 ff3f
00000150: 1526 e684 a483 f2bf 7a19 f054 94ec ff3f
00000160: 03a1 ffa8 0255 ecbf fbf3 98c8 8d1f 0040
00000170: 037c 378a 27c5 efbf 69eb 51e0 4c0e 0040
00000180: fe40 01c0 8095 ebbf fad0 fd56 5312 0040
00000190: 8962 3b17 6010 ecbf 9ac2 dbab 0f23 0040
000001a0: 17b7 3ce8 4ab5 efbf d3eb be46 72eb ff3f
000001b0: 4cf6 22ed de38 f4bf 38e8 35f1 61b7 ff3f
000001c0: a84c b9fe 764b efbf 06aa e28a a005 0040
000001d0: 1ac1 e7eb 0dc6 f0bf a22e 872e 17ea ff3f
000001e0: 6563 a9ba 026c f0bf 447b c52c d3e0 ff3f
000001f0: d086 0db2 a3b3 f1bf c2f0 2039 2805 0040
00000200: 7f2b 29b3 d8b8 edbf 924b 1aa7 6100 0040
00000210: 190f 79fa 4545 ebbf 63b0 954f f035 0040
00000220: fe2d 3d2b ffa9 f0bf c58f 7257 12fb ff3f
00000230: 2aa4 f83f 9b33 f0bf 6778 a719 a915 0040
00000240: 1f01 0187 1c7a ebbf 7879 5071 67f5 ff3f
00000250: 913b 7bdb a0a4 f1bf ffa5 af61 a4c9 ff3f
00000260: 8683 a3cd 0296 f1bf 746e f595 0fcd ff3f
00000270: 5e81 efcf f9c4 f0bf 354e 26aa d7f3 ff3f
00000280: 3234 d2d1 5f4c edbf 6c94 f2bd 6816 0040
00000290: f0e3 01db 4857 e6bf efe5 10f6 9758 0040
000002a0: c0ff a6b1 a643 e8bf 2f28 3211 f02e 0040
000002b0: ca72 528b 391b f1bf e167 10bb 5a0f 0040
000002c0: 47ed 25c2 d57d f1bf 9a14 c6e4 fbe7 ff3f
000002d0: 7022 6a37 e7c0 eabf c602 6723 7d18 0040
000002e0: c9cd 2407 8d19 e9bf e313 36d6 1027 0040
000002f0: 0c7b 241c e65c edbf 98d3 49b0 a60b 0040
00000300: 45cb 29a5 abc0 ecbf 62c4 379c 3bf3 ff3f
00000310: a16d 7087 b33b ecbf fbbb 11a3 0f1e 0040
00000320: b23e da7e a8d7 eebf 2260 2f51 541a 0040
00000330: 6100 8832 7d6a f0bf e0d7 ddb3 1f03 0040
00000340: eef5 f430 2a86 f1bf c296 eb93 fecb ff3f
00000350: 85b3 cbf9 7cdc edbf 3398 f462 f306 0040
00000360: ea46 998c 5316 eebf 0723 57da 4e06 0040
00000370: 4c25 5344 62da f1bf 9238 1881 3eeb ff3f
00000380: 8633 b93e 35de f1bf 1948 0d70 c9e4 ff3f
00000390: 2268 d043 4626 f1bf 38bd 1ece 60d2 ff3f
000003a0: 92be 61ff 87f3 eebf e813 d733 1c08 0040
000003b0: 2786 cd77 666f efbf 52db 51e2 2909 0040
000003c0: af5d bd56 3cf9 f2bf e052 c122 bfc5 ff3f
000003d0: 9402 4134 d135 f3bf 46a7 1542 d31a 0040
000003e0: e6b7 9c57 3431 f1bf 9e63 8b32 7e36 0040
000003f0: 5a96 0c15 082c ecbf c7bc 266c 2721 0040
00000400: 4fc6 37be 4e10 f4bf 2046 e7ce d407 0040
00000410: e6cc 98ad b812 f1bf b335 16f3 af04 0040
00000420: 7d2d 817f 68f6 f2bf 7c3c 7611 7adf ff3f
00000430: c21b 8e35 e034 eebf f574 2563 e02b 0040
00000440: 9ac9 ea20 5c39 edbf 8c88 9557 8416 0040
00000450: f02e ea15 3eeb f2bf d21e e28f a7b2 ff3f
00000460: eb6b 1852 b99e f0bf c345 3144 52e5 ff3f
00000470: 40c8 a878 24b5 f0bf 4bd3 66dc 3de8 ff3f
00000480: 2458 f391 25e3 efbf c6ff 2238 17d4 ff3f
00000490: d92b e081 7df3 f0bf 8842 2d6f e8aa ff3f
000004a0: a50c 93f1 b88a eabf 2ec4 9d3f ab35 0040
000004b0: 384c a43c 1aa6 efbf dd99 4b51 5e03 0040
000004c0: 9dab a0e4 9540 f1bf 91ec 525d 6ac9 ff3f
000004d0: b3bd 6462 c6da f1bf 5eda b7a5 d5bf ff3f
000004e0: cfd4 0fbe 7fda f0bf 4e26 3a29 1efe ff3f
000004f0: ed7a e91e 97b6 efbf 2acf 60c9 ff0a 0040
00000500: bb40 0758 bfb5 f2bf 4449 77ba 5af8 ff3f
00000510: cfeb cf5f 08c3 f0bf c086 63a0 5adc ff3f
00000520: 8716 879e 3f41 ecbf 6ab7 f6bf ae10 0040
00000530: 9a62 77a4 394f ecbf 98cb 6d43 fb02 0040
00000540: 35e9 3f55 fb8c f0bf 361b c27d eef3 ff3f
00000550: cb65 a121 9afc f0bf eced 05c1 e5e5 ff3f
00000560: 4dee 8ee3 c327 e2bf b006 724a f15b 0040
00000570: 7afa 37cd 5b29 ecbf b53b 333b a222 0040
00000580: 7bc1 a8d6 1507 ecbf eec4 9d8d d31f 0040
00000590: 2bba c848 23e1 f0bf 75e0 b969 0502 0040
000005a0: 5b7d a28e 60c1 f3bf bf69 fd8b 7ba1 ff3f
000005b0: 4a3d 8c57 a983 e7bf 1d9f 9c38 6936 0040
000005c0: 72bf 53af 3978 eebf 42b5 43cd 3e0d 0040
000005d0: 6a4f 1bd8 88d6 f0bf 0913 d5c5 51f5 ff3f
000005e0: a654 5cf6 bd4f edbf f280 1a6c 0717 0040
000005f0: 5e80 94e4 2df8 ebbf 8142 c11e 2e33 0040
00000600: 587c cafa c572 ebbf 8f3b 3fed ba1f 0040
00000610: 9ce5 15c0 f750 e9bf 65b5 c775 4e32 0040
00000620: 1616 e2fa 5a45 eabf edef b414 462c 0040
00000630: 9861 31c2 94b3 f0bf ccd9 cf80 a6d5 ff3f
00000640: 6ddb f4ca 1066 ecbf 305e bc67 a040 0040
00000650: b8c0 ed1f 2a8a f2bf 59db 8b4a 3003 0040
00000660: 4503 f9e8 1f56 f0bf 4561 5b8f 6607 0040
00000670: 1e46 40f1 636f f0bf e731 9f58 ead6 ff3f
00000680: dbc6 b215 a6ad f0bf cb3d cfd3 4e0d 0040
00000690: b6a0 d132 9636 ebbf 36d9 88f6 601f 0040
000006a0: 90b1 82e0 dc3b ecbf 81c0 ae9e cf0a 0040
000006b0: 8fde 0ce4 76fe f3bf ce6a 84a1 f7fa ff3f
000006c0: 9832 b99b 2e52 f2bf f37c 599a 15e3 ff3f
000006d0: e945 7e9f f717 f0bf 2f15 25ed 90e4 ff3f
000006e0: f89e 62ff d427 f2bf 4026 5934 1ac3 ff3f
000006f0: 9613 a56a a812 f2bf 9c62 0692 67b8 ff3f
00000700: b244 5b63 06bf efbf 284a a334 76e8 ff3f
00000710: e8e9 f756 2b39 e7bf 086d 06a4 fc28 0040
00000720: a730 92fa 879c eabf da7f a811 0f3f 0040
00000730: 2484 90fc 9fe8 f1bf bd91 3564 2108 0040
00000740: ad1d dbeb 0cb0 edbf e99d 4712 ef08 0040
00000750: e310 42f7 f1bc e6bf 8c73 df4a 4741 0040
00000760: 0cc7 568f acc3 e8bf 8304 14e2 5528 0040
00000770: 8f44 c24f 4c62 ecbf bd08 1fdc 072a 0040
00000780: 3bbe ca3b 18d4 edbf c6e9 84d3 040b 0040
00000790: 79f5 ca61 282f eabf 4dfc 1182 1b2a 0040
000007a0: c27d a2f1 5dfa e8bf abb4 077e b127 0040
000007b0: c64b 9fed 59f3 ebbf 580c e3e8 de04 0040
000007c0: 7e8e 1ebc f981 e9bf b1cd 5f95 040f 0040
000007d0: 3c03 9ebc f515 efbf 21c8 f29c b6f9 ff3f
000007e0: 5125 31ad 48c0 ebbf ba30 def5 7a11 0040
000007f0: dad5 7aeb a9ae eebf 293c 188a 73fd ff3f
