HPC_Results/B0105+64_RBF_log1.npy (npy, 276880 bytes, 1 tensors)

array f8 [17300, 2]
00000000: cd46 87b5 54e4 f0bf fb78 ad2f 37e3 ff3f
00000010: 858a 8cbb 2097 f2bf 7813 ba00 52b9 ff3f
00000020: a699 d88e e477 f1bf 3d85 3a61 cad1 ff3f
00000030: 8a6a 8915 b5d6 f3bf 36b1 ffaf f7e0 ff3f
00000040: 04ab d48d 2a91 f2bf 238e e861 8cc0 ff3f
00000050: 5df9 42b7 8b94 f2bf 023d 1c1d 8dc4 ff3f
00000060: f9d5 d63a ede7 f1bf b6ab 203a 27d0 ff3f
00000070: f64f b48c 5845 f2bf 7fcc 3267 2095 ff3f
00000080: a705 5f5b 6720 f3bf 2fea 3f7d 598a ff3f
00000090: e06b 1b31 8985 f1bf 1f9b b474 ead8 ff3f
000000a0: fcb9 bd14 4ff4 f2bf 35ba e737 56c2 ff3f
000000b0: 8754 895f 0047 f3bf c51d 5730 849a ff3f
000000c0: b7f5 1dc5 ff6d f2bf 0c44 87d4 edd3 ff3f
000000d0: 8ffb 683e 7087 f1bf ce47 fa6b f4de ff3f
000000e0: 564e 9dae 41e8 eabf 8265 0fd1 2106 0040
000000f0: 629b ed0c c69a f3bf 208f f66b c169 ff3f
00000100: 9fd4 ed04 51cf f2bf 5971 d661 3eae ff3f
00000110: 1dae d3ad 926f f3bf ef43 17fa 5fac ff3f
00000120: c106 5d1e 5745 f0bf 12d9 60c9 9ed6 ff3f
00000130: a8f8 9d4c cb0c f3bf 7d8e 8f9e 33da ff3f
00000140: 549c 1774 9f35 f4bf 0878 b5e6 c689 ff3f
00000150: 0c01 445a e92e f3bf c9fe 3c82 d997 ff3f
00000160: 4789 a98a 161a f3bf 9a51 4354 9b7e ff3f
00000170: d4ff 2c94 35f7 f0bf d171 92e7 4eca ff3f
00000180: 543a 9073 188e f1bf c1c1 350f d7af ff3f
00000190: b2a9 66fd 1469 f1bf a562 85c6 17ef ff3f
000001a0: 7d55 fa06 b57b f1bf de5d cf0c 34db ff3f
000001b0: 0e7d b56b f25e f2bf 28bf 4d50 0cba ff3f
000001c0: 3732 554d e956 f1bf eb02 c6fd 39dd ff3f
000001d0: 3df2 b067 a556 f0bf 236c c1f3 f503 0040
000001e0: 80e4 fd21 b5ff f0bf 93bd 3831 e90b 0040
000001f0: 2933 4a9d f2e7 f0bf 16c1 5628 53c4 ff3f
00000200: bd48 ae54 c17e f2bf 0abb 5d28 b788 ff3f
00000210: 84f6 47f5 f9cf f0bf 05d4 568e 22b2 ff3f
00000220: bdf8 3aa2 c821 f4bf 5fb5 aa2e a4bc ff3f
00000230: 5161 d65c 95ac f0bf 647a c9c2 56d8 ff3f
00000240: e888 7ebb c4d5 f1bf 1266 e6fd bdb1 ff3f
00000250: a81d 4797 6e84 efbf 3b6d 23b2 45de ff3f
00000260: b21a aded 6f84 f1bf 3eb6 401b 7bac ff3f
00000270: 6ee4 b1b5 e180 f1bf fc65 216b 6197 ff3f
00000280: 9dcf 936d d94d f3bf 96ef cd43 0ab9 ff3f
00000290: e1b7 eef5 7ca9 f1bf cc68 f628 7cc2 ff3f
000002a0: 544c 17a0 46b1 f0bf 8344 9724 3fdb ff3f
000002b0: ce13 b4b4 7eb5 f3bf 54bb cf1d 659b ff3f
000002c0: bc31 3717 8c97 f1bf 5a4c 9c7d d39a ff3f
000002d0: f8b3 4e7c 2ccf f3bf 4a58 7266 0ba0 ff3f
000002e0: 6bf3 c8ac 35ce efbf ff05 4c78 84d8 ff3f
000002f0: 1678 6aa9 7839 f1bf 24e9 053e f5cc ff3f
00000300: eec2 50a0 73d5 f4bf 4c91 a01e 5b7f ff3f
00000310: dbc0 3723 d3e2 f1bf f830 aea9 8690 ff3f
00000320: bb1c f08c 2839 f2bf 7293 bfee 89ad ff3f
00000330: 9c9c 08d1 c9e2 f1bf c2c9 dcfe 7ab4 ff3f
00000340: eb95 51db 8ebb f0bf 6974 8b39 1cc2 ff3f
00000350: f58f 1edc 839d efbf 35db 0fd4 08cb ff3f
00000360: 9231 5b3a 2223 efbf 80c0 72e1 d9fe ff3f
00000370: c828 f90f 4b05 f3bf 860c 0671 ccad ff3f
00000380: 1667 d240 2276 f0bf 78c1 507b 03e2 ff3f
00000390: 3d31 861e 68be f3bf 3bd6 b753 ae96 ff3f
000003a0: e741 c7ac 8806 f1bf 9ea1 bcb1 30a0 ff3f
000003b0: d104 67fd 1f7d f2bf 6558 6c79 6099 ff3f
000003c0: 50f1 196d 3a1d f1bf efce d96c a6a9 ff3f
000003d0: 98a2 a0aa 2a84 f1bf 6e08 d671 e6c9 ff3f
000003e0: d04b bf1b 806d f2bf 0984 6dce ecac ff3f
000003f0: 7ca9 7192 66c3 f0bf 3488 09e8 7eb8 ff3f
00000400: 24ab e02c 507f f2bf 8f9b a319 e3e3 ff3f
00000410: a555 1687 10f3 f3bf 76d5 c945 32c8 ff3f
00000420: d22f ca99 87dc eebf 0df2 1d26 c4d2 ff3f
00000430: 7210 1f71 4a81 f0bf 32f1 7762 a7cd ff3f
00000440: 078f cab5 4742 f0bf aaee 36f7 4db4 ff3f
00000450: 53c2 446b 838c efbf 23ea 85d4 4409 0040
00000460: 7578 10c5 e748 f5bf 629f 9991 36a1 ff3f
00000470: d91f 45f0 b4b7 f0bf cd5e 67f0 30dd ff3f
00000480: 7030 0d61 d0ea f2bf 79f0 a96d a5aa ff3f
00000490: 2c14 0a26 a694 f3bf 35ec 36b5 7180 ff3f
000004a0: 760c 7e1e 10bf f2bf 7e82 310b cd92 ff3f
000004b0: 8291 ebec 7faa f1bf bd0b 2e43 d879 ff3f
000004c0: 9698 1978 48a9 f0bf 71f0 068a fa03 0040
000004d0: 34df 20c4 f806 efbf 111d 76c0 fde8 ff3f
000004e0: da37 536a 7d80 f3bf 86d8 08a1 f391 ff3f
000004f0: a7a3 4e9e 9e2e f0bf 656f 0aef 65f0 ff3f
00000500: bc39 fe77 9a0c f1bf 84ee 15ee 50c8 ff3f
00000510: d6e0 29ba f631 f2bf 9d45 6883 ecb9 ff3f
00000520: 8d89 e5ee bf8a f2bf 4b0a 2096 b98e ff3f
00000530: 6512 be6d 5c9e f3bf d04f 2010 d988 ff3f
00000540: 9ed4 2e20 8917 f3bf 00b9 79f7 46b3 ff3f
00000550: 0c0b df03 9602 f3bf 021d 931e 68b2 ff3f
00000560: 0a95 48f7 aae6 f0bf b62c d3f3 a0e5 ff3f
00000570: d446 41f4 9887 f0bf 0375 62df b2f4 ff3f
00000580: 4115 4892 135c f1bf 0941 8ce3 23b9 ff3f
00000590: 2b2b 3f0b d4b8 efbf 133a ff92 6cfd ff3f
000005a0: 8df1 1dcb cdd4 f1bf 2f8e dcac 97bc ff3f
000005b0: 5c97 26d4 b9e8 f2bf 753f 9e81 e6a5 ff3f
000005c0: f859 14a1 1e0b f3bf ecb7 a4e0 d6b3 ff3f
000005d0: f63b b25c 9d8c f1bf a73b 63bc 9fa2 ff3f
000005e0: 62e9 6f7a 82f4 f2bf a4d5 c612 b2aa ff3f
000005f0: 5eb8 ca8a e3f2 f2bf 722d 283f cfb7 ff3f
00000600: d6e7 f97d 3074 f0bf 1a77 1945 33e0 ff3f
00000610: ab4e cc97 2daa f1bf a6b3 48a4 70bd ff3f
00000620: 23f7 cc7c af2a f2bf b3c6 3512 45a5 ff3f
00000630: bc7c d4df ea31 f2bf d812 eaf1 79ac ff3f
00000640: 7bf0 0b4b bf72 f4bf 7a2a a172 c486 ff3f
00000650: e55a 69d9 467c f2bf 3790 da7e b8c1 ff3f
00000660: 9825 25f1 67cd f2bf 66fc 8210 02c3 ff3f
00000670: 584e 50dd bd2c f4bf a4af cab8 1bc4 ff3f
00000680: a67f e34c b0c8 f0bf 12c6 aeda e8c6 ff3f
00000690: b53e 7874 c0e6 f3bf 5f0f 24d4 c0ac ff3f
000006a0: 127e 1b02 713f f2bf aef2 f356 1ab6 ff3f
000006b0: 176a bc0a 41d4 efbf 9297 3066 7bf3 ff3f
000006c0: 4d91 23cf 5c15 f0bf db82 3128 37df ff3f
000006d0: 550f dbc8 3630 f1bf 4a4f 3c2d add6 ff3f
000006e0: 0130 760e f8a3 f2bf 3591 24c2 32bc ff3f
000006f0: 98b9 9062 e387 eebf 5f9a 2511 45e3 ff3f
00000700: d800 2ef2 a91b eebf 5bf4 f406 f5fe ff3f
00000710: 1dd3 453e 707d f0bf 39e7 4121 bcd9 ff3f
00000720: aba0 f3ed f3e0 f2bf 960e f959 0ebf ff3f
00000730: d8b8 eb6d a95d f3bf a164 b8a9 bdb6 ff3f
00000740: d139 feff 6cff f1bf 6b77 9285 42bd ff3f
00000750: dd39 7976 5f0a f1bf b17f 7e9d f8ae ff3f
00000760: 254f f8b8 3304 f2bf 3797 0821 93cc ff3f
00000770: 1910 dbed 0da5 f0bf cc57 3c60 2cd2 ff3f
00000780: 4a66 e3b5 10a4 f3bf 7924 8f29 5bba ff3f
00000790: d664 b588 c246 f1bf 2047 2420 13b7 ff3f
000007a0: 9524 ed6d 2b24 f2bf c463 642e 7ab5 ff3f
000007b0: 0868 da9b 7e88 f0bf 4660 521c 5ebb ff3f
000007c0: d97f 7f2f 9df3 f2bf 57a7 e482 7387 ff3f
000007d0: a639 2888 cc23 f4bf 3159 23a4 27a7 ff3f
000007e0: 2c7b 15b9 51e2 f3bf c48d 3b78 7283 ff3f
000007f0: fbdd ed1e a8ba f2bf 5edb 6457 2a9a ff3f
-1.0557448473886553 1.9929725515754046 -1.1618964506275529 1.9827442196267082 -1.0917707042623106 1.9887183950416578 -1.2399187890320342 1.9924237132027662
-1.1604409733069483 1.9845088791415797 -1.1612660559327062 1.9854861390229535 -1.1191227243810984 1.988318659840599 -1.1419301506293755 1.9739078551472458
-1.1954110688387602 1.97127674985553 -1.095101539444606 1.990457969551876 -1.184645730037686 1.9849455055042544 -1.2048343402759956 1.9752237213414088
-1.1518552493938452 1.9892404844179081 -1.0955660283941346 1.9919323175313255 -0.840851632160091 2.002994187624325 -1.2252865319257684 1.9633192269620352
-1.1756143753566801 1.980039961031329 -1.2147394933807683 1.9795837182211888 -1.0169287859029483 1.989897524484665 -1.1906235688070783 1.9907718843250273
-1.2630915198185635 1.9711369525971367 -1.1989530111314393 1.9745726668769967 -1.1938691536420991 1.9684098521730449 -1.0603538311115601 1.986891655519788
-1.0971912874407694 1.980429706014647 -1.088154783103715 1.9958722834327685 -1.0927019379208496 1.991016435660519 -1.1481804091816374 1.9829218994963842
-1.0837185879528428 1.9915103829409257 -1.0211538362920145 2.001933960285457 -1.0624286010554727 2.005815872711261 -1.056627859509897 1.985430867742314
-1.1559460933536194 1.9708777977754743 -1.050775488023107 1.9809899864314968 -1.2582479798434598 1.9835550139353797 -1.0421346308194936 1.990317116629421
-1.114689571761625 1.9808940809219888 -0.9849160151142557 1.9917656858950312 -1.0948333057619206 1.9796095909654379 -1.0939652535874091 1.9744581398757637
-1.2065061836592357 1.9826758049593756 -1.1038789374101656 1.9849816894625745 -1.043280244212629 1.991027014668618 -1.2318102892615914 1.9754382290372705
-1.0994988352641561 1.9752993494664879 -1.2380795341261983 1.976573372061028 -0.9939220785814603 1.9903607081508878 -1.0765310876663583 1.9875385687615301
-1.3021122228930682 1.9685927578330675 -1.11787713772724 1.9727846744672757 -1.1389546876323908 1.9798678709132358 -1.1178682484985876 1.9815626102032273
-1.045790535653732 1.9848901985017398 -0.9879779147345277 1.9870689662618137 -0.9730387820978186 1.999719505936838 -1.18879228820383 1.979931298731374
-1.0288412601570989 1.9926791016588066 -1.2339860145903707 1.9742873449553275 -1.0640951871065398 1.9766089384885173 -1.1555480860263752 1.9749455206961326
-1.069635797669509 1.978918481062404 -1.0947672524581886 1.9867920347901662 -1.1517335018040633 1.9797180236421374 -1.0477052422016575 1.982542902369926
-1.1560823205024429 1.9931365014578863 -1.2468419339032633 1.9863760686979197 -0.9644201282221678 1.9889565934128115 -1.031565133934262 1.9877084585596774
-1.016181669351626 1.981519666368437 -0.9859025092210437 2.0045258143775455 -1.3302991578889565 1.976858681440682 -1.0448502908275172 1.9915017500660952
-1.1823276320528997 1.9791616710417925 -1.2237912641442206 1.9688584402745282 -1.171646231757021 1.973340076183518 -1.1041259054846653 1.967247259541849
-1.0413288775830885 2.0019427092902835 -0.9696010428078581 1.9943826215765663 -1.2188696053813062 1.973132733384348 -1.0113817390322113 1.9961909616021896
-1.0655770003537404 1.9864053058835518 -1.1371981880202404 1.9828915722940572 -1.158874448003732 1.9723449577583263 -1.2261623656096614 1.970910132401503
-1.1932460076471112 1.98126885099515 -1.1881313468190369 1.9810563272783956 -1.0563153895867026 1.9935616993341632 -1.0331048527918272 1.997240898700796
-1.0849796022533413 1.982700241907937 -0.9913120479262479 1.999371122557595 -1.11445407240453 1.9835430862812122 -1.181817845071655 1.9780030310830317
-1.1902147571723827 1.9814060950407066 -1.0968297596880325 1.9772031172649152 -1.184694746275078 1.979173730226969 -1.1842990323598523 1.9823753802364448
-1.02836655816508 1.9922363948057353 -1.1040473870861358 1.9837500016539962 -1.135421264174007 1.9778490744906037 -1.137186884246872 1.9796084832934664
-1.2780144626149468 1.9704021909443825 -1.155341004623261 1.9847950892663115 -1.1751479549151096 1.9851093907343738 -1.2609232564035633 1.9853780001094288
-1.048996258112291 1.9860619108479836 -1.243835883102219 1.979676083255036 -1.1404886324234025 1.9819587132071024 -0.99465992066263 1.9969438545026361
-1.0052154628147776 1.9919959611944964 -1.0742709966588866 1.9899112479224237 -1.1650314869793876 1.9834468444542612 -0.9540879178146495 1.992985789279963
-0.9408769350120805 1.9997453948738186 -1.0306246216325186 1.9906579302900822 -1.1799201292979358 1.9841445459905223 -1.2103666585713224 1.9821144704531337
-1.124859809849671 1.9837060182248603 -1.0650324466583847 1.9802175666918453 -1.1260258889569255 1.9874450006841025 -1.0402964869726985 1.9888118514258961
-1.2275549988757057 1.9829970954326923 -1.079775365846492 1.9821959739242132 -1.1338304800031314 1.9818059742158178 -1.0333238685620945 1.9832440477676
-1.1844760756866803 1.9705691445364744 -1.258739978660381 1.9783092891353358 -1.2427537183609259 1.9695915886485276 -1.1705704887552872 1.9751380361392061
