HPC_Results/B0105+64_RBF_log3.npy (npy, 267280 bytes, 1 tensors)

array f8 [16700, 2]
-0.8787645178884989 2.001867445000678 -0.9727212001954456 2.000779781061824 -1.0757199682077574 1.9959333579331313 -0.9928619051038353 1.9949345949089867
-0.9670741465065298 1.995792743233492 -1.2667446718300521 1.9943368439066838 -0.9771622989730242 2.007400360305457 -1.0069184071343344 1.9924445644189328
-1.0647714475878571 1.990018757502775 -1.206421115255256 1.9913246474934974 -1.024682113082247 2.0031924901268567 -0.9161989161821915 2.0106631190898074
-0.807294668364502 2.0225194945340585 -0.676895253243229 2.0329477697357228 -0.8118437400657702 2.0231267447400225 -1.0098379479352146 2.0014033722597007
-1.010065555625339 2.0025219042136952 -1.0513784732230884 1.9976470809017977 -0.8043518846717068 2.0316321163214486 -0.7908437392192273 2.0240970956859745
-0.7941808342628063 2.0356963867931817 -0.9384911823702957 2.0075628139471338 -1.1660309700852882 1.992493141723515 -1.0280187738987778 1.9982520353610627
-0.6652181110046226 2.036888505058628 -0.912888570127588 2.010041481736168 -1.1044602210597823 1.982621784446455 -1.2640368571812726 1.973174293345329
-0.8849263921199046 2.0105715643549433 -0.9129824317837988 2.0069518016874395 -1.0198790719143394 1.987633707448169 -0.8919720867965119 2.0131479857103325
-0.8032689077878532 2.017052766351726 -0.8888087858699931 2.015545338489982 -0.8669629300129795 2.034531022498526 -1.065225943644727 1.997488344778017
-0.8592700339428415 1.999566576431111 -0.7392472963612686 2.0282086260556818 -0.9923417231678575 1.9895467265402567 -0.8423999268684441 2.01133366628473
-1.0057022582959567 1.996256922146612 -0.8871872276804256 2.0108020079844118 -1.0164775811738176 2.0052794153466844 -0.9061325882263895 2.012689034969137
-0.895267368475846 2.013063829380152 -0.9632686359022824 2.0214261894593015 -0.9246735541936419 2.0113594064351514 -0.981753766506913 1.9945834937147748
-0.7857653171765228 2.024282808212211 -0.9006396389890695 2.0020094687654715 -0.8314670601063632 2.0191337185676295 -0.9551108253317294 1.9915280589391777
-0.7928604592725461 2.0193353195599126 -0.9721326775230055 2.002265362798577 -0.842632519443503 2.009941598613329 -0.7925764059537116 2.0180842169119066
-0.8925434543684683 2.003406642532092 -1.020936328118763 2.0017429426887663 -0.9331881205199142 2.0054293962004386 -0.85028631379799 2.00509913043221
-0.8902464396822292 2.009668038769755 -1.1494735273942926 2.0011405804309144 -1.0539985179176987 1.9948071710316075 -1.0169334155860108 2.0011183217508663
-0.877983426557906 2.0084846293799923 -0.8347481424322847 2.0190559573862314 -0.8893052819426773 2.0107280890137367 -0.8481975617736326 2.0107860838720812
-1.03944163758884 1.9801177564884203 -0.9987340813631201 1.9940879114276404 -1.0134470286546995 2.0201731865703456 -0.9647601156174258 2.005233962839975
-0.8500825839810068 2.0075019739779454 -0.8279651705589459 2.0222876383108006 -0.8940601887451318 2.015362846121342 -0.9017994799147726 2.0082345380070117
-1.0857243218044026 1.990378130234225 -0.9278058189864805 2.0043761037273438 -0.9993408069724269 2.001118640776486 -0.8680930677249922 2.0154077840101015
-1.142269384174734 1.9864540069409649 -0.9025011742630222 2.0163639625565777 -0.860778324812269 2.009852048468351 -0.8295747150959513 2.0069285104344843
-0.8846064671737295 2.0061235031621085 -0.9406727806115435 2.00850330429033 -0.9374504183607848 1.9977431399755023 -1.0251393783224576 1.9854660337749923
-0.8127655682762356 2.0247692162288704 -1.0491879379136988 2.0015582331544324 -0.8700720064107088 2.013132842420857 -0.9337402791879228 2.0031961442485313
-0.9061266804475907 2.007394313073389 -0.7928967619710932 2.0321002551839267 -0.897741351457061 2.007632828161678 -0.8839828668368722 2.004905023820691
-0.9222766814342855 2.014320439752237 -1.0587665809867486 1.9892510937088554 -1.0977038225754896 1.9958765805434868 -1.01114972865546 2.005090650682026
-0.8980753993445267 2.0120985870956596 -0.9514708075965395 2.011679390257506 -1.107975054150352 1.9915777980436677 -1.0037596723963669 2.008843606017079
-0.8311142513164085 2.0095714382107777 -1.0909495673230063 1.997125408266592 -0.9141314685733465 2.01058825032357 -0.9316921543537919 2.004082463382976
-0.7520841267568967 2.01811615275269 -0.6309579037258837 2.0395296963891067 -0.9610866834567076 2.0001701481632836 -0.8880687214649521 2.003137388822383
-0.9828238704455833 1.9979399383526257 -1.0921348145305296 2.000003159838777 -1.0112283755666756 1.9920622545793976 -1.04403817842448 2.0026804388965074
-1.0093581100373668 2.0059201911534212 -0.8957414670214806 2.0062964682041478 -0.8956796908592909 2.0054283666406776 -1.0401230172729283 2.006404004428567
-0.9376791720067283 2.0057710053924325 -0.985276360414155 2.0070775625281607 -0.9918923053150122 2.000882991055954 -0.9736052453265367 1.9898101112141637
-0.8193367587527366 2.0122100493598944 -1.2352343368123706 1.9808055443840835 -1.0994300325712396 1.991584149121608 -0.9499086747642956 2.0136795042288527
00000000: 02ec 26c4 d61e ecbf d2a3 3914 d303 0040
00000010: cde3 de35 8820 efbf c344 71d4 9801 0040
00000020: 22b4 3124 2636 f1bf 9917 15d1 57ef ff3f
00000030: f3af 7b54 86c5 efbf 90b0 ac89 40eb ff3f
00000040: 60af 017b 45f2 eebf f782 1c5f c4ee ff3f
00000050: f846 9e0f 9644 f4bf d097 1cc0 cde8 ff3f
00000060: 6225 9fde e944 efbf a8ec 8beb 270f 0040
00000070: 3a1e c679 561c f0bf 445b 348d 0de1 ff3f
00000080: b9ab 11c9 4d09 f1bf 636a 9ee8 1dd7 ff3f
00000090: 4d9a 333a 804d f3bf b740 cb3b 77dc ff3f
000000a0: 34c0 4712 1965 f0bf 5080 c5c8 8906 0040
000000b0: d442 b463 8051 edbf d41c 9e8b d615 0040
000000c0: df8a dba0 5bd5 e9bf af5e 64b3 1e2e 0040
000000d0: efe9 ef3b 20a9 e5bf b5ed cb1e 7a43 0040
000000e0: 116f 21b9 9ffa e9bf 1992 2213 5d2f 0040
000000f0: 9343 0ad6 4b28 f0bf 1dad 6fc5 df02 0040
00000100: 62a1 0380 3a29 f0bf c3f8 4034 2a05 0040
00000110: 9e62 e33b 72d2 f0bf f7c4 16c9 5cf6 ff3f
00000120: 9e82 e429 40bd e9bf c4d4 c856 c840 0040
00000130: 842c 8687 974e e9bf e132 6fd1 5931 0040
00000140: 9899 c8ec ed69 e9bf 8be5 ee2f 1b49 0040
00000150: 60ac fba8 1e08 eebf a48c b417 7d0f 0040
00000160: 423b 2a17 10a8 f2bf 034f 137d 40e1 ff3f
00000170: ba1b 59d0 c372 f0bf c1a8 5020 d7f8 ff3f
00000180: 9718 ef7d 7749 e5bf e299 5633 8c4b 0040
00000190: dce2 3217 6236 edbf 2348 dda0 9014 0040
000001a0: 83f4 127b deab f1bf 138e c89e d1b8 ff3f
000001b0: d883 28b6 7e39 f4bf 199e 3335 1f92 ff3f
000001c0: 60b6 3027 5151 ecbf 5760 598b a615 0040
000001d0: dbaf caee 2637 edbf a92a 07bf 3c0e 0040
000001e0: 62f3 bbb7 6c51 f0bf 83ac 9e00 59cd ff3f
000001f0: 6d8c b70b 098b ecbf bf12 c554 ed1a 0040
00000200: 82f5 1aff 60b4 e9bf c34b 8e8f ec22 0040
00000210: d8b0 761f 1f71 ecbf 985b 033c d61f 0040
00000220: b000 e80a 29be ebbf fea0 6233 b846 0040
00000230: a1e0 ec5b 2a0b f1bf 7267 af56 b6f5 ff3f
00000240: 3df4 c6de 237f ebbf 1224 bf85 39fe ff3f
00000250: f0e5 30f2 e9a7 e7bf 75fe b271 c539 0040
00000260: 9eca ee6d 43c1 efbf 0aab c5f2 2ed5 ff3f
00000270: 34b0 01b1 f0f4 eabf 264b f01a 3617 0040
00000280: c94f 4e40 5b17 f0bf 7788 3019 abf0 ff3f
00000290: 681f 0a78 d663 ecbf 8531 f85c 1f16 0040
000002a0: c423 04ff 7d43 f0bf 4f0c 22ef cf0a 0040
000002b0: aeb5 08c5 09ff ecbf 94ae 71b5 fc19 0040
000002c0: a1f3 98c0 07a6 ecbf 1296 7f35 c11a 0040
000002d0: 8acf 0ebf 18d3 eebf 780b 787e e12b 0040
000002e0: dc9b 57fe ec96 edbf a920 b999 4317 0040
000002f0: 85e7 fbdf 866a efbf 9257 aa61 d0e9 ff3f
00000300: df55 734e fd24 e9bf 0b03 592f bb31 0040
00000310: bf0e 5e38 0ad2 ecbf 4f0a 558a 1d04 0040
00000320: 8675 dbce 609b eabf 9efd 3b94 2f27 0040
00000330: ff5e db93 4490 eebf b05c a386 4cdd ff3f
00000340: 7ebf dbe5 1c5f e9bf 1c57 a946 9927 0040
00000350: f4b1 2afd b51b efbf 5511 d9b3 a304 0040
00000360: 2dca 3179 d8f6 eabf 4c50 c742 5c14 0040
00000370: 8de0 e431 c95c e9bf ebae 8156 0925 0040
00000380: a2af 584a b78f ecbf b11d d20f fa06 0040
00000390: 3718 c954 c155 f0bf c4c6 cecd 9103 0040
000003a0: 76c2 5455 addc edbf 7bf1 3891 1e0b 0040
000003b0: d9f5 bfa4 8b35 ebbf 178e b369 710a 0040
000003c0: 7c19 fa19 e67c ecbf 14a9 32d6 cc13 0040
000003d0: 826b 7c5a 3e64 f2bf a231 1dfe 5502 0040
000003e0: e3d2 c78c 2ddd f0bf 3583 96ec baea ff3f
000003f0: 846c 22f9 5b45 f0bf 61c5 9a52 4a02 0040
00000400: 11e1 efb2 7018 ecbf 5fa5 ad63 6011 0040
00000410: d696 84bc 41b6 eabf 8624 4ecf 0627 0040
00000420: cf52 c359 3075 ecbf 5bb3 bb9b f815 0040
00000430: 8eab 8b36 6f24 ebbf 2adc ab03 1716 0040
00000440: 4eb7 f88d 8da1 f0bf e88b e5f4 8fae ff3f
00000450: d55d 1b2d a1f5 efbf fce3 ceb9 c8e7 ff3f
00000460: 11ce 443b 1437 f0bf 1e9b 448f 5029 0040
00000470: 17fc 219b 50df eebf 33cf 991a b80a 0040
00000480: 851f 2364 e033 ebbf 3120 e731 5d0f 0040
00000490: 34e3 38d0 b07e eabf 2133 2d24 a52d 0040
000004a0: 161c ea1c 249c ecbf 3151 4d8e 761f 0040
000004b0: 8a14 3995 8adb ecbf 9580 fb44 dd10 0040
000004c0: 70f2 6977 205f f1bf 5879 00bd 96d8 ff3f
000004d0: d7bb 32d4 95b0 edbf 8c24 b356 f608 0040
000004e0: 8127 7092 99fa efbf 6868 6c7d 4a02 0040
000004f0: c36b f81c 6bc7 ebbf f16a c31d 8e1f 0040
00000500: 6a0a 0443 bc46 f2bf 161d 2dff 83c8 ff3f
00000510: fcf5 8124 4ae1 ecbf 961b e06d 8321 0040
00000520: 5d94 45fc 7e8b ebbf ebc2 8f4f 2d14 0040
00000530: bf9e dd45 e08b eabf 10cf ed88 300e 0040
00000540: a6eb ca38 b24e ecbf b18b ae7a 8a0c 0040
00000550: c7d8 9ecd fd19 eebf e2ad 2e2e 6a11 0040
00000560: 1465 0f05 98ff edbf d50c c082 c1f6 ff3f
00000570: a2c9 7b8c f866 f0bf 681e 2608 78c4 ff3f
00000580: 10f6 e1ef 2c02 eabf 5434 ed33 ba32 0040
00000590: f926 8b4a 79c9 f0bf ad80 83f6 3003 0040
000005a0: 005f 963f a1d7 ebbf dc9b 4564 e51a 0040
000005b0: c03d 424b 33e1 edbf 7a2a 38b3 8b06 0040
000005c0: 34c6 5161 fdfe ecbf dc9c e6bf 240f 0040
000005d0: 00a5 b807 695f e9bf 6faa 51c7 bd41 0040
000005e0: 23cc 1812 4cba ecbf a6a4 dacc a10f 0040
000005f0: f13c e96f 9649 ecbf f22a 27a5 0b0a 0040
00000600: 14f5 1363 4a83 edbf 9a33 e308 541d 0040
00000610: 1ff9 f639 b5f0 f0bf 3130 70f4 f8d3 ff3f
00000620: a07e 2ae2 3190 f1bf db95 0448 1cef ff3f
00000630: 9cf3 7e56 ab2d f0bf ab8e 91f7 6c0a 0040
00000640: 38dc b09e 08bd ecbf b53a df24 c718 0040
00000650: 203a 37e8 7272 eebf b18b 395d eb17 0040
00000660: e2c0 e50c 44ba f1bf 8f98 60ae 80dd ff3f
00000670: f1c6 5f4d 660f f0bf fcf9 b498 1c12 0040
00000680: 8c97 14ea 7c98 eabf 51ba b030 9a13 0040
00000690: 77cd 9388 8774 f1bf 2540 a8c5 39f4 ff3f
000006a0: 0f8b 38a3 9040 edbf 8ce4 e64a af15 0040
000006b0: 5075 9c10 6cd0 edbf 6abc f562 5c08 0040
000006c0: f25e 08bb 1211 e8bf 31d1 dc14 1a25 0040
000006d0: eef8 34a1 ce30 e4bf 39b2 09f2 f450 0040
000006e0: 4c2a 42dc 38c1 eebf cd5f e634 5900 0040
000006f0: 2e5c 6918 0f6b ecbf 8418 33e5 6c06 0040
00000700: 6b57 a90b 4b73 efbf 6d8c 69de 8ff7 ff3f
00000710: d7b4 f35a 6279 f1bf d13b 1ba8 0100 0040
00000720: 8889 1dce fd2d f0bf 8d3b b0ab 7cdf ff3f
00000730: a4bc 8160 61b4 f0bf 0632 6b52 7d05 0040
00000740: 7901 89b0 5426 f0bf bf1e 9be2 1f0c 0040
00000750: 03e8 5002 eaa9 ecbf 0f23 a829 e50c 0040
00000760: 4fd3 7d74 68a9 ecbf 0d8a 0907 1e0b 0040
00000770: ac10 7008 58a4 f0bf 4fac ec8a 1d0d 0040
00000780: a218 3dc0 7701 eebf 8067 3bab d10b 0040
00000790: c605 304a 6287 efbf 32c0 5cae 7e0e 0040
000007a0: be6c 8fee 94bd efbf f3a9 0df1 ce01 0040
000007b0: 6e87 fc2f c627 efbf a9a3 8e20 43d6 ff3f
000007c0: dd1d e8b8 0138 eabf 6277 1595 0119 0040
000007d0: 0a16 7814 85c3 f3bf 83d7 8d27 61b1 ff3f
000007e0: 9723 22f2 4397 f1bf 4459 3b57 87dd ff3f
000007f0: 4794 89e0 a665 eebf ad4e faff 031c 0040
