HPC_Results/B0105+64_Local_Periodic.npy (npy, 261680 bytes, 1 tensors)

array f8 [10900, 3]
00000000: 9250 76c1 9fc1 d1bf 0bed e5c2 2077 0140
00000010: f6fb 9baa 1fc8 0140 fc5a a9ee ae41 d4bf
00000020: 78f3 f1fa fd72 0140 cc2e d9b8 1019 0240
00000030: c9bb 88ea 68e5 d0bf 107c 0ac4 6af7 0140
00000040: 5665 7c4b 1873 0140 4483 2078 c909 dabf
00000050: a9a0 95f0 f50c 0140 9b0c d8ae 8296 0140
00000060: 7a60 dc67 a892 ddbf 5762 f76f 50e1 0040
00000070: c264 a96c cc63 0140 cca0 797d b32c e6bf
00000080: 67f1 1aec 9ccc ff3f 9e65 69ac f547 0040
00000090: b48a d183 e387 e4bf 4e82 25f3 0677 0040
000000a0: a57d c0ec 43eb 0040 74c7 99e8 99d0 dbbf
000000b0: 9620 d88d 7f44 0140 16f3 996f a182 0140
000000c0: c257 7ba7 8ec9 d5bf 53d1 8ad6 3d57 0140
000000d0: cad3 39d4 2cdd 0140 f211 897f a8b1 d6bf
000000e0: 7a6b 9303 555e 0140 aa33 7785 77aa 0140
000000f0: 5c35 9c5c 202e d4bf fd7e 669e 5589 0140
00000100: c300 fc72 43c3 0140 5525 3cd9 16bf d6bf
00000110: f79d c090 be77 0140 5d30 44c3 5496 0140
00000120: f367 fc97 a71b cebf 231e 5464 7623 0240
00000130: 46c4 356d e5e6 0140 b0a2 7cb9 1e79 d2bf
00000140: 4e1c 26a3 8ec1 0140 836a 8129 6a9e 0140
00000150: eaba 3474 1632 d7bf aae1 09e8 e62f 0140
00000160: e889 1ec0 70a5 0140 11f2 cef8 a512 d9bf
00000170: 2453 9c9d ba2c 0140 a0d0 1eb5 559a 0140
00000180: 00af 615c 39f7 d4bf 0e40 759d dc65 0140
00000190: 505d 3441 08a3 0140 0e0d 79d2 b78f d9bf
000001a0: 7789 2fb0 3d51 0140 455e ddb0 9fdc 0140
000001b0: 779b acef 35c8 d9bf 76cb cacf 2b70 0140
000001c0: 683f 81f2 c397 0140 55de 5b94 8c89 d6bf
000001d0: 70f8 4941 6ec0 0140 4e06 9f92 df47 0140
000001e0: a201 edf3 34cf d2bf 0779 0b86 7a69 0140
000001f0: b2d6 1477 b2bf 0140 7c0d e234 c683 d0bf
00000200: 42c3 9ec0 b8fe 0140 11b7 1c96 c396 0140
00000210: 74fb 8dd1 6106 ddbf 8c30 7d31 394f 0140
00000220: b9f3 955b 526d 0140 2c94 3f65 b406 d5bf
00000230: d164 7849 19c3 0140 f5b0 178d 798b 0140
00000240: f668 d896 606a d7bf 198a 9a48 ad7c 0140
00000250: 5223 7a09 2fa2 0140 4450 93f1 d737 d7bf
00000260: 0c11 af6d b162 0140 6285 cc21 7f81 0140
00000270: f901 ebb3 3089 d8bf 777d 939b 265f 0140
00000280: 7877 fcde bea1 0140 6ca5 8952 dcfb d3bf
00000290: 436c f8bf 477b 0140 754a 610e 18d0 0140
000002a0: b1a5 3239 118d d3bf 6cb2 efb1 bad7 0140
000002b0: 4c44 e053 6fa0 0140 6e86 5372 4451 d4bf
000002c0: 8361 f787 839a 0140 4f60 b62f 2a9d 0140
000002d0: ee2e 7dbe 8a43 d3bf 24b1 d2d6 f1a0 0140
000002e0: 395b 552e dc9d 0140 ef1f edbf 631f dbbf
000002f0: 819e 98df b424 0140 cb33 61b4 6f61 0140
00000300: 3a70 d490 7c10 d2bf 2be6 979f 8cbd 0140
00000310: f50d 8fcf 08cc 0140 d215 83fe 4436 ddbf
00000320: 5da8 2e02 6937 0140 4346 4100 5889 0140
00000330: 579f 18fa 14f9 e2bf 36fe c908 92b1 0040
00000340: d5ed 20ea 42dc 0040 c6c7 eb91 2bb7 d2bf
00000350: 092c 3eb6 88ff 0140 fd25 91b4 ecac 0140
00000360: a0ae 0a31 780b d6bf 5c50 32fd 4095 0140
00000370: eda5 d96e f2bf 0140 60a2 c6d2 e3bc d5bf
00000380: 51bb 7054 eba2 0140 a2b6 15ed 2d73 0140
00000390: 18af 5bb1 99c0 d2bf a76a a066 96c0 0140
000003a0: e4be 1368 69bc 0140 f5f5 8b59 678a d6bf
000003b0: e769 7d03 6778 0140 72f9 685f fbc1 0140
000003c0: 500f f532 b135 d3bf 9775 9ae7 54c0 0140
000003d0: 9187 aa0f 56a6 0140 1d3e 7868 3b26 d4bf
000003e0: 9668 1a29 5e6a 0140 6fea 0ec9 91ae 0140
000003f0: 2b1a 94c8 0c4f d9bf 8d3b 2740 9fe3 0040
00000400: 9d8c bed4 8ba1 0140 3ce4 48f6 7b89 d6bf
00000410: 04f3 5015 80b7 0140 76d0 af36 04b1 0140
00000420: be13 3281 d0b8 d9bf 15ee 2871 6738 0140
00000430: 7912 14a7 ee57 0140 e68b f3a5 ffed d1bf
00000440: 5724 1c63 aabb 0140 4d25 db36 443a 0240
00000450: ed2f e7b4 2f95 d5bf 4714 ba88 39ab 0140
00000460: f481 0275 40a0 0140 2e2c 61e6 22be d8bf
00000470: ab4c 057a 6445 0140 aac5 a26b e091 0140
00000480: 0236 3263 6afa d6bf 943e ebdb a9a3 0140
00000490: 0089 69cd 4f93 0140 e045 ea9a acae d5bf
000004a0: e23d 00e3 33a6 0140 9c7a 8a57 1ca4 0140
000004b0: b4e9 64a8 47a6 d7bf ff74 1514 6d55 0140
000004c0: 1067 59e3 a5ae 0140 8e88 3b9c fa45 d6bf
000004d0: 44ad 62fe c86a 0140 a195 893b 32b2 0140
000004e0: d322 ed4b bf4b d3bf c03d 23f1 44df 0140
000004f0: 01bc b095 438d 0140 4b6c 00f2 5196 d2bf
00000500: 0f9f c85b f5d0 0140 3d50 08a0 16b7 0140
00000510: ad8f 9699 a7fb d7bf 1844 a39f ea5b 0140
00000520: f8a1 460c 0ead 0140 eca0 dd1f 037a d6bf
00000530: b3df d8ef f47a 0140 6162 e1ab d3d7 0140
00000540: 8cca 0888 66e9 ccbf 4099 b2df 4700 0240
00000550: 7dd6 283e d2aa 0140 2eb4 bc7b 07de d5bf
00000560: 760d 566a aba2 0140 99a7 32fd 006f 0140
00000570: d1d4 ace1 64c5 d8bf f174 a0c4 0c72 0140
00000580: d9e9 da13 2aab 0140 306a 040a e618 ddbf
00000590: 5b58 5269 034a 0140 70b2 bc4f ebb0 0140
000005a0: 8c91 e289 73e9 d3bf 4567 d3fb 2a8d 0140
000005b0: 403a 111c 448c 0140 11e3 abd8 043d d4bf
000005c0: 2342 1719 48cb 0140 7ad6 5eb6 188f 0140
000005d0: fa3a ef4b 4442 d4bf 202f 482d 7cbe 0140
000005e0: b8b0 f276 a4aa 0140 894a 2988 2689 dbbf
000005f0: aeae b912 4a36 0140 b656 1b81 e48e 0140
00000600: 3686 6cfe c11d d9bf 2f09 0082 1d54 0140
00000610: 5f1a 82e9 bc8c 0140 42d4 664a 4ff7 d7bf
00000620: c9ad e53e 78a1 0140 20fe 0ccf c686 0140
00000630: 3ecc 855e 0be1 d2bf 7efc 668d cfc1 0140
00000640: a792 e1f7 f592 0140 a560 07fc 4f1f d5bf
00000650: fb19 beb7 58bb 0140 548a a9d4 b18a 0140
00000660: 2504 9f13 4fb1 d8bf d4a5 2d70 ca27 0140
00000670: b5a6 1d03 a982 0140 8cd8 6b43 9893 d6bf
00000680: 6d07 7f25 65a4 0140 18cd 18e1 e29c 0140
00000690: 0dc1 2c73 f38f cdbf 5643 f7c1 82f1 0140
000006a0: ed3e 8d7d 0f98 0140 fa0c 2288 3ecd d9bf
000006b0: 5903 bfdf 7c1f 0140 3c05 79de 1eb8 0140
000006c0: 8af0 c9c3 e755 ddbf 97fc 450e de45 0140
000006d0: d2d1 015d 7398 0140 78b1 d281 62e0 e4bf
000006e0: 63b3 f6e0 65c0 ff3f 7551 4364 61e1 0040
000006f0: ed51 de25 ff4f d3bf 26df 2f6a 50c6 0140
00000700: ffec 595f 3385 0140 d38c ee2b 178a d7bf
00000710: 3b86 c8cf aa8a 0140 0d94 e4eb 7964 0140
00000720: 989d 62fb b8dd d6bf 1b69 5297 405d 0140
00000730: 4a8e b8c4 7ecb 0140 c0ba 6134 0669 dabf
00000740: 0e1c f75b f48d 0140 58af 4045 567c 0140
00000750: 6895 1a95 8c3d d4bf c762 8122 6097 0140
00000760: 3c97 2353 d181 0140 564c 290b 4212 d8bf
00000770: 3f69 8625 f688 0140 c69e 9910 ea8b 0140
00000780: 5e97 7b95 f653 e0bf 8392 1ac1 691f 0140
00000790: 9e7d f2e5 946b 0140 90bd e1c5 822b e5bf
000007a0: dad2 c8e5 f752 0040 525d 4513 c0c7 0040
000007b0: 0c5c 2f0d 22db dbbf 2c08 5012 d31f 0140
000007c0: 861b 77b5 f78a 0140 955b 6f63 7a92 d9bf
000007d0: 3270 7f10 0887 0140 7a22 bc92 7bb3 0140
000007e0: 059a d0b5 bbd8 d4bf aee8 37a6 5496 0140
000007f0: 6b12 d086 b4ca 0140 65e5 0e4b 0c4b d7bf
-0.2774428738860105 2.1831679560106116 2.222716648946057 -0.3165089922598978 2.181148491390953 2.2622389260558062 -0.26400206474039273 2.2458091083240177
2.181198682531128 -0.4068473504176391 2.131328467909118 2.19849144551115 -0.4620762838617406 2.1100167033548973 2.1737297524638004 -0.692956681316923
1.9874543402539417 2.0351365537323565 -0.641587979753544 2.0581187244245376 2.114875650047639 -0.434607007168885 2.1584464150983633 2.188784477124851
-0.3404270778240709 2.1675984154809753 2.2329956607959263 -0.35459339575416415 2.1710605887760126 2.2082357813837534 -0.3153153328319911 2.192057836058551
2.2203434928088384 -0.3554131623682982 2.1834689434797343 2.1984038596329314 -0.2352189533347083 2.2673156583948795 2.237742284015016 -0.28864257921172065
2.21951034030966 2.2023509256953857 -0.36243211124649 2.148389637757835 2.2057814606971426 -0.39176320359891387 2.1468403161365064 2.20035878658571
-0.3275893594898065 2.174737196102803 2.204605588350809 -0.3993968539618472 2.1646684422022946 2.232726461177466 -0.40284489064872936 2.179771064163499
2.1991042085355055 -0.35214533317728086 2.218960294790172 2.16009439990811 -0.2938969022834731 2.1765032264949045 2.2186021140322163 -0.2580428615985608
2.2493758247805156 2.1986152389062075 -0.4535145327026193 2.1636833063440175 2.1783797412049037 -0.32853422057661663 2.220263074862125 2.1931029341559403
-0.36586775523177495 2.1858773872529693 2.2041912784956503 -0.36278341857292085 2.173189980416401 2.188230766347872 -0.3833734280597408 2.171460357130566
2.203977338866874 -0.31224735317535735 2.1851954457938816 2.226608383506852 -0.30548506341673504 2.2303365613245685 2.203337340623454 -0.317460166594265
2.200446188199011 2.2017406203777123 -0.30099743463936945 2.2035862715766985 2.2020801181601226 -0.4237908720283476 2.1429231136751814 2.1725763408817094
-0.2822562612871057 2.217553374121754 2.2246261802226805 -0.45643734793369817 2.1520557566155234 2.1920623798294243 -0.5929055103961031 2.0867043196338058
2.1075495044039863 -0.29242982149218866 2.249772475979175 2.2094358546062254 -0.3444500426219097 2.1978778630237183 2.218724123017401 -0.339653926692824
2.2045504185584055 2.1812399408580214 -0.29300539322024255 2.2190368669228806 2.216997922041502 -0.3521974920730309 2.18379023291094 2.2197177366171497
-0.3001521108274021 2.2189119428646324 2.206218836204194 -0.3148334999286549 2.1769374095138785 2.2102390010525634 -0.3954498251700069 2.111143590161595
2.203879987778761 -0.3521413712620107 2.2145997681931266 2.211433818092753 -0.40190518013724474 2.152541050016007 2.1679356625557458 -0.28015128332316264
2.216633581444096 2.278450420916363 -0.3372306124335854 2.2086058313166492 2.2032479421034115 -0.3866050004768934 2.1588830502383494 2.196228829293166
-0.3590341538154861 2.2049138241926105 2.196929554732492 -0.338786269459062 2.206153653569104 2.2051321829924984 -0.36952392048592775 2.16671195688707
2.2102773439081673 -0.34802117592892834 2.1771411775459075 2.2120098735201315 -0.30149824537924735 2.2340182150726093 2.193976563888555 -0.2904248107240092
2.2270304842567223 2.21439862275477 -0.37473478316155245 2.1698811027240588 2.2094994505935084 -0.35119703399551727 2.185037492567028 2.2303841999203518
-0.22587281839658535 2.250137088430307 2.2084088188374253 -0.3416765888567309 2.204428511382214 2.179201105221136 -0.3870479778154961 2.1806884156672983
2.20857635032483 -0.45464468935248004 2.16113931925342 2.211386321016384 -0.31112373795829096 2.1939296411409566 2.1934892838246753 -0.3162242999965637
2.2242586097929844 2.1948713538829994 -0.31654460349538704 2.218010286107429 2.2083215039075093 -0.43024600312234235 2.1515084708133463 2.1947717749088396
-0.3924412712677595 2.166071906686873 2.193719696314744 -0.37446958795345975 2.2038426317064688 2.190808885177617 -0.29498562079169577 2.219634155946152
2.196758209773481 -0.3300361596316271 2.216477809418618 2.192721997665368 -0.38582207599762547 2.14442908896738 2.1887989276336506 -0.352758470383727
2.205271046580427 2.2016046128934583 -0.23095553516169112 2.242925181730622 2.1992482956628607 -0.40315211576690013 2.140374897019154 2.2149026280100355
-0.4583682453155765 2.159114943991493 2.1994387880497266 -0.6523907218557232 1.984472159160952 2.1100490410846597 -0.3017576093491517 2.2218330665454173
2.1900393914526144 -0.36780337610453023 2.192708609873788 2.1740606717235154 -0.3572828726705324 2.1705333539986333 2.2243628853628126 -0.4126601707020363
2.194313734511076 2.1857114229550625 -0.3162566619960985 2.198913831304114 2.188387536548275 -0.37611437883351095 2.1918757373470323 2.193317537010304
-0.5102494163117901 2.1403384290918566 2.177530094588021 -0.661561380851639 2.0405118896399985 2.097534323267305 -0.435249817729926 2.1405393057512097
2.1928552796338776 -0.3995653124852024 2.1909333504572936 2.2126380408920427 -0.32572834735256634 2.1984036432086986 2.223977139687397 -0.3639555676450839
