HPC_Results/B0105+64_Local_Periodic_log1.npy (npy, 201680 bytes, 1 tensors)

array f8 [8400, 3]
00000000: 48a5 b1c3 1b2d e3bf 9cca 26bb b898 ff3f
00000010: a6b5 b5fc 949d 0040 efb8 76e2 c144 e4bf
00000020: c2bc 7808 85bb ff3f 755d 5253 b646 0040
00000030: ac9e e6ef d6d1 e6bf 84f9 72db 738a ff3f
00000040: ec5d bc09 e33c 0040 9669 dea4 b0cf e3bf
00000050: aec6 29d5 3dbd ff3f b896 4dbe 32f2 ff3f
00000060: 2ae2 2878 df3f e3bf 058d 0b79 88b7 ff3f
00000070: 4ffc f38a 4335 0040 1902 7e64 2b44 e4bf
00000080: 028d b5a6 7ed9 ff3f 264e 6792 2934 0040
00000090: 2cfc b05c aa65 e4bf 1ea2 33f6 0eb0 ff3f
000000a0: 25ec 16ad 7b94 0040 f3f4 bd06 71ba e4bf
000000b0: 24c4 656f efa9 ff3f 2d34 2434 5bad 0040
000000c0: 29bc f658 9826 e4bf e35a 324d 45ee ff3f
000000d0: 71f8 ff27 a732 0040 f1bf b025 7365 e4bf
000000e0: e8f3 c822 2cab ff3f 2695 b501 dc48 0040
000000f0: 3f19 31d0 44bb e3bf fcff f438 8cc3 ff3f
00000100: 5395 6a7c ed4f 0040 9350 a4ca 3a2a e3bf
00000110: 7789 20f7 93d8 ff3f 4c56 a13c 5f70 0140
00000120: 7c90 e6f1 f591 e4bf 3f2e a6e1 3901 0040
00000130: a6de 2559 129d 0040 3917 ce5d d95e e4bf
00000140: cdc8 c90c 16bd ff3f 189e fa27 8240 0040
00000150: 3585 47d3 bb11 e4bf 0c67 14cd 5cb3 ff3f
00000160: 0ddd 16ce d5a3 0040 489b 9be9 64ba e3bf
00000170: 5932 0777 940f 0040 38bd b71c 58e4 0040
00000180: b26e 9b45 5672 e4bf e5ba c946 88ed ff3f
00000190: 5dbc 58d1 d050 0040 5444 dbba 86b5 e1bf
000001a0: 5373 e976 0ab8 ff3f f1b3 d96b 7507 0040
000001b0: e48a dc70 6eec e4bf 5219 9188 d9cb ff3f
000001c0: b215 eada c75f 0040 862c 083b 0acf e5bf
000001d0: 4121 4a20 63b6 ff3f a4fc 594c 4a17 0040
000001e0: a49e 438d 70a4 e5bf a9c5 90e6 f793 ff3f
000001f0: 11f6 7b87 1b83 0040 aabf 85e0 7d88 e5bf
00000200: 3cb6 b577 14fe ff3f b8f3 f098 360f 0040
00000210: 7b78 36cb 27c4 e4bf e4ef 0276 f9d7 ff3f
00000220: 1191 e8b3 8a44 0040 084d f82d 9c92 e4bf
00000230: bf39 29a0 7bb7 ff3f 51c6 5c7f 0a01 0040
00000240: b555 f9f8 8419 e2bf a840 d059 6ada ff3f
00000250: 4716 3d2d 6111 0040 6c44 28d8 c93b e4bf
00000260: 300e 0384 6de9 ff3f 5d73 f4f9 7a60 0140
00000270: 9914 5274 86ec e4bf 79bd c487 efad ff3f
00000280: 7230 3c45 d4a9 0040 1d9e cd59 0279 e4bf
00000290: 538a e0b7 a7c9 ff3f 91f5 6867 51ad 0040
000002a0: 3264 ceba 850b e3bf b896 5c52 79a0 ff3f
000002b0: 1253 93ab 61fe 0040 83a8 81cb 9768 e4bf
000002c0: d7bf 725d b4cb ff3f fb3b 2e3b d66a 0040
000002d0: ef1b 5d94 8bcc e3bf d524 2f3d f8c4 ff3f
000002e0: 04e8 a535 b89c ff3f 34e8 528d 5336 e4bf
000002f0: b41d 7ccb 56f8 ff3f 8315 4368 9ab9 0040
00000300: 395e f13c 4ebb e2bf 7805 3e3e 40f5 ff3f
00000310: e887 5433 7354 0040 d20e 763b ef07 e3bf
00000320: 61d7 209b 689f ff3f eef2 8b53 3a09 0040
00000330: 4612 d67f d3a5 e3bf f313 cbcf 57a5 ff3f
00000340: 5386 5c6b 0bba 0040 d890 ad1a 9466 e1bf
00000350: 7469 2ce2 19d8 ff3f 03ee c64b ab34 0140
00000360: d1a8 49e3 e14a e4bf cfdd beb4 2e9a ff3f
00000370: b684 4641 1d6c 0040 13f5 d467 728e e2bf
00000380: a40f baaf a780 ff3f 5382 bd87 bf39 0040
00000390: 55f9 e022 974f e2bf 6dde 1a01 6cbf ff3f
000003a0: 55c5 8782 7004 0140 b2f8 591f 0bd7 e2bf
000003b0: 351d cbea d1ab ff3f 0125 415c 39fc ff3f
000003c0: 9a6c 3e84 19f8 e3bf 12cf 1388 d8ae ff3f
000003d0: e621 86ab b148 0040 5dac acad 4397 e2bf
000003e0: 41b8 6b11 17a9 ff3f 6714 aa04 9347 0140
000003f0: 3528 2786 dfbc e3bf 37e8 3f4b eab4 ff3f
00000400: 5dbf d2ba e312 0040 6251 e3e7 ffe5 e3bf
00000410: 7e45 f46b 30f6 ff3f 693c 4bf7 73ad 0040
00000420: 3d43 b7ad 7902 e2bf 15cf 6a70 a8c0 ff3f
00000430: ff1b a560 bbe3 ff3f a3d4 3b94 0a00 e2bf
00000440: 11cc 9755 0bd6 ff3f b131 d1f4 0f50 0040
00000450: 70ce 48f4 9ecc e4bf 10ce 726a 95b8 ff3f
00000460: c3e4 3001 6e7c 0040 ff7b 0ee6 b2b3 e1bf
00000470: 3f54 e506 65b7 ff3f 0ec3 3937 40fa 0040
00000480: 6540 4c61 79b5 e2bf b6f4 f70c 7d11 0040
00000490: c0d0 59ed 3f61 0140 1376 07f6 7491 e3bf
000004a0: f1d0 681d cef1 ff3f 4880 a4b4 0d5d 0040
000004b0: 4f89 dde3 c7a8 e2bf 6fc6 ff86 ab9c ff3f
000004c0: f4e5 0787 5331 0040 976b ecf1 82c9 e3bf
000004d0: 7651 ea53 98c9 ff3f b94c f3f6 e050 0140
000004e0: 4b51 1833 c9bf e1bf c0a6 2121 d0df ff3f
000004f0: 5d6e 8cc2 1b78 0040 e4e3 72f2 5a64 e3bf
00000500: bd11 6d3c d3a3 ff3f 2e89 aa87 f871 0040
00000510: 9c76 0135 589d e4bf 6d67 687d cda9 ff3f
00000520: 47d2 c183 8f4c 0140 752b 2a1e 3d1b e3bf
00000530: 93be eaa9 54aa ff3f f0c3 04e8 5b0a 0140
00000540: affc edff 2cc4 e3bf 9bc4 6a28 6c9b ff3f
00000550: b8a8 baeb ca76 0140 2d20 c064 f7c4 e3bf
00000560: b8fd b714 36b6 ff3f 09e9 f757 59df 0040
00000570: 6d86 419e f751 e3bf c5d7 f080 83be ff3f
00000580: 67c4 c71c e977 0040 bcc5 7048 8411 e3bf
00000590: 5af7 c81a c7e6 ff3f 69dc e754 7aad 0040
000005a0: 1300 4ab5 815e e3bf 1bb4 c281 3fb8 ff3f
000005b0: 3377 6e31 9733 0040 9f8f bd9f 9363 e3bf
000005c0: 794e 738c 15d2 ff3f 4e28 79fd 6d71 0040
000005d0: 4414 32eb e473 e3bf 0d33 625a 07cc ff3f
000005e0: 9343 df17 82ed 0040 d896 c9ba c785 e2bf
000005f0: fffa 7a4a aece ff3f cf88 ac51 a7ca 0040
00000600: 2c48 bdb8 c5e5 e3bf b4b3 e08e 4289 ff3f
00000610: 6eda 6c99 d933 0040 c039 6842 4cd8 e2bf
00000620: aeeb 4658 7bdf ff3f 28f3 662f 2e12 0040
00000630: 9fe0 4851 c36d e5bf 2386 6a79 b592 ff3f
00000640: 6dca 065f 7a4c 0040 35a7 21c2 d851 e5bf
00000650: 04ee 4330 35da ff3f c02a 956b 4ce1 ff3f
00000660: 594c 13ca aa71 e3bf a577 c025 87c9 ff3f
00000670: 49b3 38bf c190 0040 ffb7 107f 55f6 e3bf
00000680: f68a 6d14 9cb7 ff3f 821b adfa 470b 0140
00000690: c040 3960 6ca9 e3bf daa8 f92a 78c3 ff3f
000006a0: d5ef bed6 e5ea 0040 d7a3 326d 90df e4bf
000006b0: 18b6 65c3 b0a5 ff3f 90c3 55fe 3e5d 0040
000006c0: fb1f bf6b e752 e5bf fcaf 1e02 84df ff3f
000006d0: 0492 9f5d a6b8 0040 582d f48e 9056 e3bf
000006e0: 09ae 5564 7faa ff3f 32f9 851d 3b72 0040
000006f0: 79ac 3a49 721c e4bf bfe7 7761 09d3 ff3f
00000700: a62b 572f 2562 0040 ab7b 1679 8bcf e2bf
00000710: b44d 9081 3ab2 ff3f 34c7 5c88 e2dd 0040
00000720: b794 25a3 1186 e4bf 37b8 3e6e e9d3 ff3f
00000730: 42f1 07d5 1bb9 0040 eaf0 97da 7e62 e3bf
00000740: 5b64 bfbe ebb3 ff3f f58b 4928 ffd5 0040
00000750: 517a 386d f93e e3bf e526 a0ce 4cbb ff3f
00000760: a5ec 2231 14f5 0040 5c3b 0706 3778 e3bf
00000770: b40b 7cca bd99 ff3f d193 d005 6bc2 0040
00000780: 85f0 766e 9d92 e5bf e042 d59f ddbb ff3f
00000790: a8eb 0c9b b1ed 0040 0e43 704f de55 e4bf
000007a0: 9f55 a63f 1fda ff3f 61bd f2d0 9db5 0040
000007b0: fa19 eaf8 b97a e5bf 8684 758f 93bf ff3f
000007c0: 7106 20fa 9a69 0040 30f3 ae20 9a4d e4bf
000007d0: 2d25 9416 776a ff3f 374e 9f95 7e31 0040
000007e0: fb06 1019 9aa7 e5bf a786 ac5e 64a6 ff3f
000007f0: 84c2 3797 6050 0040 33c6 ab78 6437 e3bf
-0.5992564031741177 1.9747855482679944 2.076944326682411 -0.6333932326431561 1.9832811671183639 2.0345274457465004 -0.7131151853145261 1.9713018963080637
2.0297299156770716 -0.6191027851194117 1.9837015463530565 1.9966304239000419 -0.6015469881886635 1.9823078850102445 2.026007733889436 -0.6333214724291479
1.9905992996289688 2.0254699170852914 -0.637410336530484 1.980483018613206 2.07250151849941 -0.6477589732818657 1.978988108774737 2.0846466134594466
-0.6297113168310534 1.995671559857947 2.0247328877440443 -0.6373840080395877 1.9792901381290395 2.035575879434549 -0.6166099611516883 1.985241148460772
2.039027187349953 -0.598904987130043 1.9903754857446907 2.1798691498504805 -0.6428174709913175 2.000598681339198 2.0766951527292177 -0.6365782577638363
1.9836636065997937 2.0314982531888397 -0.6271647573995894 1.9812896738935164 2.079997644493807 -0.6165031969693269 2.007607393176198 2.111496185643457
-0.6389571532740403 1.9954912915379108 2.0394607882695213 -0.5534089707890737 1.982431854724571 2.003641932088151 -0.6538612560583172 1.9872680029526077
2.0467679121672626 -0.6815234330146189 1.9820281277953458 2.0113721814119163 -0.6763232001366828 1.9736250883546325 2.064017351599212 -0.6729115853504386
1.9995312381901291 2.0074283550770495 -0.6489447564124612 1.9902281389067804 2.033467679533836 -0.6428967378473383 1.9822956329622767 2.0005083036601623
-0.5656151640675292 1.9908240803088493 2.008486131121376 -0.632298395330634 1.99448920790827 2.1721095588422217 -0.6538727065932505 1.979964762063757
2.082924405001955 -0.6397716287582998 1.9867322142314563 2.0846279219537753 -0.5951565407332338 1.9766782014134332 2.124209728654372 -0.6377676939712419
1.987232556373774 2.0521664260372723 -0.6187189004639303 1.9855883016592106 1.9757616134288591 -0.631631637595325 1.9981296490312674 2.0906265397522374
-0.5853644552507326 1.9973757201517781 2.0412353525325564 -0.5947185670233586 1.9764181194018067 2.004505779941943 -0.6139924523163891 1.977866946880792
2.090842093239908 -0.5437717934660453 1.9902590594197962 2.150717346199373 -0.6341409148419875 1.9751421985982807 2.052790174450446 -0.579888537212954
1.9689099182441874 2.028197346182688 -0.5722156220652247 1.9842338603174554 2.1271677205738038 -0.5887504207928684 1.9794482394807578 1.9990781406107205
-0.6240356047523108 1.9801869693300813 2.035495128661057 -0.580964888771074 1.978781765031741 2.1599483837513165 -0.6168058033156344 1.981668752616782
2.0092234225811993 -0.6218261269628267 1.997604772277867 2.084693843825836 -0.5628021614921647 1.984535636071944 1.993098619002694 -0.5625050444783891
1.9897569030260949 2.0390929342595077 -0.6499781390361488 1.9825643690245478 2.060756692223181 -0.5531858914654321 1.9822740811698762 2.1221927942755263
-0.584652605090025 2.0085392964525353 2.1724852126154417 -0.6115059666878458 1.9965344570928745 2.045436297674346 -0.5831031275268205 1.9757495187190235
2.0240850972447735 -0.6183485722607313 1.9867175367299672 2.16449158601753 -0.5546613691281349 1.9921418470570842 2.058646697912805 -0.6060003981903006
1.9774963722603467 2.055649814502565 -0.6442070994632618 1.9789557360404288 2.1623831075214954 -0.5970750416903302 1.9790846478826196 2.1300581098989753
-0.6176972387910576 1.9754449442664626 2.183004228242762 -0.6177937476904894 1.9819851693463146 2.1090571281939714 -0.6037557688652676 1.9840121304273322
2.0585500954116926 -0.5958882727483608 1.993842224720956 2.084705985380016 -0.6052864590456032 1.9824824398776915 2.0251907216869767 -0.6059053535395725
1.9887900816292172 2.055385570774013 -0.6078972428955542 1.9873116999253313 2.115970789433456 -0.5788305900757349 1.987959185542138 2.09895194824012
-0.6217983825865807 1.9710107403909491 2.025317381510198 -0.5889035508169442 1.9920609901734951 2.008877153710632 -0.6696487987128598 1.9733175986115234
2.037342779535996 -0.6662410537366897 1.9907733807912118 1.9925045206497742 -0.6076253840241278 1.9867011522942246 2.0706820429972237 -0.623820064711026
1.9823265836682231 2.130508383186169 -0.6144315604560902 1.9852220228881863 2.1146961953181553 -0.652290547635057 1.97795177771639 2.0455303068087645
-0.6663701157021927 1.9920692522819072 2.0901610674211515 -0.6043169776980148 1.979125396664019 2.055776816035313 -0.6284724645860386 1.9890226180418578
2.0479224871136976 -0.5878350605961392 1.9810128270226928 2.108342233020176 -0.6413658319912859 1.9892362886853456 2.0903851168679077 -0.6057733792690929
1.9814259959296325 2.104490580315082 -0.6014372952666439 1.9832275458633657 2.119667419317539 -0.6084246747721909 1.9750345143845438 2.0949306921270154
-0.6741473348152033 1.9833656543234426 2.1160614121740373 -0.635481982377401 1.9907524572675823 2.0886799167707726 -0.671231256638577 1.9842715839261316
2.0515651265166572 -0.6344729078624365 1.9634924776058356 2.0241672219506444 -0.6767092217926057 1.9781230638695122 2.0392467321292447 -0.6005117756705601
