HPC_Results/B0105+64Local_Periodic_uniform_likelihood.npy (npy, 408080 bytes, 1 tensors)

array f8 [17000, 3]
000000 50 81 e8 89 3d cc f6 3f 20 53 53 70 2b 1b ff 3f
       1.4248633753814666 1.944133223315653
000010 85 11 02 90 b3 b5 fd 3f e8 c7 52 b5 4b d9 f1 3f
       1.8568606972995394 1.115550716680895
000020 50 b7 88 53 05 34 03 40 be 88 eb 34 1a d3 f4 3f
       2.4004007841203148 1.301538664549795
000030 e2 36 de f1 ae a4 ed bf bb 8f 40 bd b3 00 f8 3f
       -0.9263529514298308 1.5001714127219958
000040 a5 da d0 1c 60 6e 05 40 20 81 d5 2a 21 32 b0 bf
       2.6788942576634605 -0.06326491637947074
000050 08 74 9f 81 dd 8c ed 3f 2f bf ef 71 3e 8f fc 3f
       0.9234454662033622 1.7849716616291962
000060 58 26 95 9b 4e b2 db 3f fe d0 5a 55 b3 29 02 40
       0.4327579993592727 2.2703615825977286
000070 a4 38 4d c4 c6 84 e0 3f 5a 18 45 6d 0b a3 f3 bf
       0.516208060647632 -1.2273058193545894
000080 84 07 f5 81 53 b1 02 40 e2 c7 46 1f 3d 6e f5 3f
       2.3365850594427133 1.3394137593972961
000090 39 78 65 5c 8d 89 d1 3f b0 0c 93 67 d0 14 ff 3f
       0.2740205194767245 1.942581562602566
0000a0 15 24 c0 d1 fa 28 f8 3f 60 36 0d 19 71 0e fd 3f
       1.5100048249607927 1.8160258272722771
0000b0 1c f4 bc ab e2 82 ef 3f 60 14 89 52 1e b5 05 40
       0.9847272257098925 2.7134367416461345
0000c0 a9 a7 a0 da 70 a7 fe 3f 3d d1 02 4d 12 a0 02 40
       1.9158791103495594 2.328159906052092
0000d0 f5 89 10 64 47 53 05 40 a3 52 c9 e4 50 4f f2 3f
       2.6656635110423346 1.1443642556161329
0000e0 ba 84 0b 6b 86 b8 e7 3f b5 e6 af 0d 4c 01 f8 3f
       0.741275033066038 1.50031667086152
0000f0 fc 9e 05 b2 f2 54 e1 3f fe f5 01 af ba 36 e6 3f
       0.5416196324340201 0.6941808145635944
000100 78 51 79 04 26 f9 00 40 70 24 5d 1d e9 17 e9 3f
       2.1216545438311947 0.7841687749397703
000110 57 65 bf ea b2 07 02 40 fa be cc fb 7f 66 05 40
       2.253759225812853 2.67504879683099
000120 2c 73 d7 d7 e0 de f9 3f 68 90 94 63 05 98 fb 3f
       1.6169136458694977 1.7246145143372136
000130 a8 46 99 73 46 c1 04 40 72 74 95 d9 a6 61 f1 bf
       2.5943726569319843 -1.0863407611243727
000140 89 91 a8 b6 08 ae 00 40 14 4f b8 ea ac 41 fb 3f
       2.08497755720072 1.7035340470073992
000150 fa 64 c7 52 89 b8 db bf 67 8f 2f b6 c9 2d f9 3f
       -0.4331382091891808 1.5736786953575235
000160 7e 7b 72 50 75 fb eb 3f 65 e0 0b 45 31 9e f5 bf
       0.8744455882295907 -1.351121206009361
000170 0c 0f d2 12 63 8b df 3f f6 5b 8a 76 5a 98 ed 3f
       0.4928825076860768 0.9248478236430617
000180 b0 bd 91 ba fe 12 c4 bf 05 78 59 4b f4 b4 f8 3f
       -0.1568296824438966 1.5441782897319183
000190 f9 87 30 fd 75 75 f5 3f 1c a5 ad b8 14 ff d1 bf
       1.3411769762246861 -0.28119390521040244
0001a0 82 22 86 21 92 80 e0 3f 6e ef 10 6d 19 d5 e4 3f
       0.5156946806683467 0.6510131006429967
0001b0 ee fc f4 38 eb 61 f2 bf c5 74 13 e1 d3 30 f1 3f
       -1.1489059662706569 1.0744208137542028
0001c0 56 aa 35 e4 92 b6 e0 3f 06 9e 60 e3 d5 5a ff bf
       0.5222868401736587 -1.9596766359262587
0001d0 40 88 04 ca e5 30 05 40 6c 7b 63 5d 65 14 dc 3f
       2.6488757879861 0.43874487037640253
0001e0 61 29 db a1 a7 ba e5 bf 2a 77 c0 96 6b cb fe 3f
       -0.6790350114108997 1.9246631516211417
0001f0 17 70 23 48 25 18 e3 3f da ac 66 63 96 56 f7 3f
       0.5966974648431486 1.4586395151953213
000200 88 c5 23 f2 b9 45 05 40 c1 7a 4b 5e b6 8d f9 3f
       2.6590460698286655 1.5970977481262454
000210 60 f8 8b 04 77 cf db 3f 25 d5 d4 ee 7b 91 05 40
       0.43453765338916206 2.696037164564262
000220 1e 1d 43 71 80 00 fc 3f 57 37 b0 88 32 85 ff 3f
       1.7501224922469372 1.9700188960445837
000230 48 e3 7b 2b a4 2c f5 3f d7 5b cb 52 92 19 f4 3f
       1.3233987520781785 1.256243060508259
000240 46 9d 37 d4 13 87 f0 3f 50 e5 d6 21 6f 86 f7 3f
       1.0329778947578503 1.4703208276608457
000250 45 02 1c 36 78 68 ea 3f fe b9 27 0f 26 3f cf 3f
       0.8252526337456138 0.24411464443205938
000260 51 94 4e e4 a4 4a 03 40 f1 b9 9d b6 85 86 03 40
       2.4114473186951177 2.440684725464273
000270 e5 c7 fc 65 58 ff f9 bf 99 78 a3 b8 e0 93 03 40
       -1.6248401626476092 2.4472059655082146
000280 62 8e 01 af 1d 3f 02 40 c0 ca 9b 58 d5 b1 ef bf
       2.280818335757247 -0.9904581766735063
000290 20 01 4f c0 b3 8e 03 40 f8 6c 41 cb 10 cb 03 40
       2.4446787857160786 2.4741531257001235
0002a0 bf af 02 eb 4a d1 e1 bf 2c 18 ee 1e ba 2d de 3f
       -0.556798419003364 0.4715409566928226
0002b0 fc 9a b1 82 53 9c f1 3f 06 56 49 4a 62 d9 ff 3f
       1.1006655793404994 1.9905722524466696
0002c0 d3 75 5e b1 4a 1e 05 40 70 59 4e 8e e3 8b f5 3f
       2.639790902800749 1.34665256107618
0002d0 e4 6b 00 7c 41 f2 f6 bf e0 80 a3 9f 49 c7 03 40
       -1.4341444820226963 2.472308394601086
0002e0 2e 0d 15 13 50 3c eb 3f 93 3c 6d ba 7f 22 fa bf
       0.8511124012660838 -1.6334225923817811
0002f0 ad 87 42 ba 00 1a 03 40 de da d9 58 43 7e f3 3f
       2.3876967002442684 1.2183259459249522
000300 ad e1 a2 2a 76 29 e7 bf 82 53 f6 5d 19 15 05 40
       -0.7238112290133835 2.635302290038852
000310 61 bc f1 86 13 e4 ef 3f e3 64 5b 1b 1b 60 fc bf
       0.9965913425093157 -1.77346335111934
000320 7d ce e1 0b 6d 6c f0 3f 92 9c 12 82 04 6f f4 3f
       1.0264711822646 1.277103908630839
000330 0d 70 47 54 61 68 f8 bf 8c be 09 e6 f3 36 02 40
       -1.5254834453726318 2.276832387134908
000340 c5 91 0a 13 2a 49 04 40 58 b7 9d aa 33 c3 ff 3f
       2.53572478176122 1.98515669485956
000350 fb df 7f 1d 53 87 ec 3f e0 17 6f 4b 5a 2e e9 3f
       0.8915191246187527 0.7869082902259343
000360 a0 a5 e1 ed e0 2d f3 bf 5a c9 a8 22 75 60 fa 3f
       -1.1987008373492714 1.648549209011057
000370 b0 5f 88 af 9d 66 f5 3f a9 3f c6 bd 4f 7a fe bf
       1.3375527245279777 -1.9048612034857604
000380 42 52 fa 71 1e d9 01 40 03 a5 c1 08 69 de 05 40
       2.231015100909901 2.733598774346889
000390 38 1f 8b 42 05 ff c6 bf e0 ba e0 86 a1 ce f8 3f
       -0.17965760945502907 1.550447012774093
0003a0 3b 4e 2d 05 3b bc fa 3f e5 c5 6a 5a 15 be ee bf
       1.6709547235704025 -0.9607035413702617
0003b0 36 05 c2 27 85 ae 03 40 0c 53 9b 0e 53 8a 00 40
       2.460214911087543 2.067541231265187
0003c0 ec 86 4d e7 fe 33 fb bf c1 da ab d0 46 9e f8 3f
       -1.700194266821593 1.5386417533133427
0003d0 26 c8 6a 42 9d 20 fb 3f 94 2f ba cd f9 8e f6 bf
       1.6954624742907156 -1.409906200048657
0003e0 4d d0 e3 db ba 81 04 40 06 d8 a5 44 23 1f f8 3f
       2.5633446864031044 1.50760199370916
0003f0 1c ae fb 1f 9a 9f d5 3f 50 df da 4a 47 f0 00 40
       0.3378663360915384 2.1173234794659166
000400 e6 3c e8 f7 56 b3 e7 3f 2c ea 1f 52 bb 78 f1 bf
       0.7406420556962103 -1.091975518035393
000410 f8 ac ac e5 a8 f7 04 40 08 24 e2 af c1 db e2 3f
       2.6209276145287923 0.5893257556173248
000420 4b ed 0b 59 02 28 e3 bf 76 f5 9a 75 b0 10 00 40
       -0.5986339320365145 2.0081490695872004
000430 9e 42 11 20 fc b1 f6 3f 7c 88 ab 73 23 66 e8 3f
       1.4184533360131932 0.7624680766277971
000440 97 4b 1c ad 10 7d f1 3f 30 11 3a 2f 05 d4 fb 3f
       1.0930334818010345 1.7392627568052141
000450 c6 c3 dc 40 66 f6 e4 bf b3 fe 2c 7b e2 9f f4 3f
       -0.6550780550807012 1.2890343486359768
000460 2c b3 b8 14 c8 44 01 40 93 2f 6b 7e 93 bb fb 3f
       2.1585847491136487 1.7332949579458485
000470 12 0f ec 58 15 74 e9 3f 03 e9 25 6c 2d 4a fa 3f
       0.7954203354606497 1.6431097244772566
000480 88 a7 48 dd 4d 4b f9 bf 80 6e 4d 6b 6a c7 f5 3f
       -1.5808848041437802 1.3611854735853797
000490 db 07 c2 bf 81 f6 fc 3f 54 fe 73 a1 eb b0 ea bf
       1.8101823320907815 -0.8340967324620103
0004a0 ec 8e 86 8f 76 15 ff 3f 37 34 e1 6a 08 d7 fa 3f
       1.9427400213689294 1.6774982619274519
0004b0 53 e2 9b 23 e1 1d fa bf 59 0f 01 f7 19 d5 f0 3f
       -1.6322947874997638 1.0520267151450382
0004c0 51 cc f9 70 96 85 f3 3f 84 fb 7c 94 f0 49 ef bf
       1.2201141751400153 -0.9777758503113181
0004d0 48 16 a8 71 e5 c4 e1 3f d1 7c db c4 97 ef 05 40
       0.5552851886611245 2.7419886950952805
0004e0 a2 83 89 53 d0 71 f8 3f 42 1e 66 bc 81 52 fa 3f
       1.5277865660830021 1.6451432570774078
0004f0 8f f8 3e b9 08 ec fc 3f 9d 40 f6 02 23 cc f4 bf
       1.8076255069895841 -1.2998380771350988
000500 fa f1 1b 3a 3c 60 ee 3f 6a 2f b4 7c 40 db dd 3f
       0.9492474684662391 0.46650707414732173
000510 d3 17 7d 84 ee ea f0 3f 06 e2 b4 8c 24 9a eb 3f
       1.0573563742959677 0.8625662563491125
000520 d8 f7 84 8b 32 81 fe 3f d9 73 24 79 e4 0e f8 3f
       1.906542344091113 1.5036358577847209
000530 10 9b c3 32 2a 3c 06 40 12 4a ee 1b 21 91 e7 3f
       2.7793773618644835 0.7364659829639228
000540 78 fa 58 c7 80 ae e4 3f 5e b4 49 0a 82 5d fc 3f
       0.6463016408450377 1.7728290941115783
000550 30 fc 69 d9 24 ea de 3f 85 57 fb f6 15 35 f7 bf
       0.4830410121139179 -1.4504604003645636
000560 c2 03 f0 27 d2 7a f5 3f 3a 14 4f b4 5e b2 e1 3f
       1.3424855766354402 0.5530236741693735
000570 6c 16 56 6a 36 b4 f9 bf 4a b2 08 55 7f 68 ee 3f
       -1.6064972070465968 0.9502560292072044
000580 3b 86 76 99 5a 1f ea 3f 3e a1 02 22 b6 2c e3 3f
       0.8163273808788242 0.5992079414618627
000590 5e be 9c cf e0 4a fb 3f ac 55 42 fb 3c c7 fb 3f
       1.7057808027128867 1.7361421408471456
0005a0 ee 99 46 41 6b 38 f1 3f d2 39 86 1a bb 13 ef 3f
       1.0762741613231088 0.9711585538914795
0005b0 12 36 a6 4a 8f de f7 3f 31 1a f1 48 c7 ef f4 3f
       1.4918358722674196 1.3085396622933667
0005c0 18 4f 86 d0 24 4a f5 3f 93 04 df 10 b1 81 f2 3f
       1.3306015153402253 1.1566630038289858
0005d0 80 14 3e 8c 18 8c a8 bf 33 23 86 23 ae 40 e4 3f
       -0.04794384681648811 0.6328955358340863
0005e0 e9 cf 52 57 5e db ee 3f 27 e6 08 34 30 ba f4 bf
       0.9642783837830368 -1.295456126461781
0005f0 3d 2e a1 1d 99 84 e6 3f 58 4d a0 8d 49 d4 fc 3f
       0.7036862925246578 1.8018279583237327
000600 3b bd 65 7e 71 16 f0 3f a8 5c 27 d0 d3 cf e7 3f
       1.0054793298148315 0.7441195550444677
000610 03 a5 ff 4b d9 e4 03 40 e0 2f 65 25 77 d7 b1 3f
       2.4867425858871015 0.06969399130792864
000620 4f d2 76 37 9c 69 f0 3f 06 a2 2d 58 5f 0d 03 40
       1.0257837454384064 2.381529511349302
000630 a8 c1 77 ba 18 7a c0 bf 62 a5 b4 37 ff 19 01 40
       -0.1287260923850344 2.1376938201907913
000640 88 81 51 42 4a 61 ec 3f 53 0a 68 58 61 f9 fa bf
       0.886876229789821 -1.6858838513732237
000650 78 40 b0 e3 97 9c f9 3f c5 01 30 e6 a8 c5 f1 3f
       1.6007307905274768 1.1107567779255174
000660 c3 ee a8 64 1d 8d f5 3f ec 79 fd 45 6d 57 e4 3f
       1.3469518596674994 0.6356722228045419
000670 ea 6a d6 f0 58 06 ff 3f 7c 40 d9 99 f5 ad e9 3f
       1.9390496642797026 0.8024852757316832
000680 2a 1c d2 e6 6f e6 f1 3f 2b d6 21 c0 3a 1c f2 3f
       1.1187590614733929 1.131891966358476
000690 98 7e 7b 7c 40 7a f8 3f f1 f6 66 e3 20 1c f2 3f
       1.5298466551393286 1.131867302217355
0006a0 7f 2f 1a 5a 32 fc ff 3f af a4 35 63 a5 38 b6 bf
       1.9990714568729968 -0.08680185005290995
0006b0 da ce 68 13 a2 33 03 40 69 1d 72 86 d0 cc 02 40
       2.4002114788398616 2.350007105214605
0006c0 b0 03 d8 6e 04 d2 c6 bf 7f 9e ba 73 7b 9a ec 3f
       -0.17828421985907772 0.893857694657484
0006d0 84 cd 4a 55 ff 6a df 3f b8 61 5f 14 f2 07 da bf
       0.4909056027347207 -0.4067349623633407
0006e0 e8 55 59 d6 41 57 e6 3f aa f0 37 63 1a 61 03 40
       0.698151510858847 2.4224136115500032
0006f0 5c 46 cd 25 42 51 d5 bf 28 b8 7e 83 bd 22 f2 3f
       -0.3330846184881915 1.1334815155528393
000700 96 b9 85 19 84 b8 01 40 c3 1a ba ea fb e2 f3 bf
       2.2150957101759543 -1.2429160279295253
000710 ce 96 3e 29 ff 15 ee 3f e0 e7 29 43 2a d7 dc 3f
       0.9401851468616884 0.45063263472513704
000720 c0 d4 ee 7c f4 42 bd bf 14 f0 db 6f 82 fe 05 40
       -0.11430290269966559 2.7492722262377445
000730 cf 5e 04 07 ff 62 e8 3f ab 87 cd b7 0d 2a e0 3f
       0.7620844971706563 0.5051334943675462
000740 15 f5 3c 76 a8 9e fd 3f 1e 7d 39 9b 17 a5 e6 3f
       1.8512348765064577 0.7076528579454224
000750 45 ef f7 da 87 33 f1 3f a2 71 d9 4f c2 83 f6 3f
       1.0750807336289239 1.4071677321545413
000760 a2 df 1c 34 d2 a4 05 40 a0 ba fb 30 1a 96 f4 bf
       2.705479056483413 -1.2866460717593
000770 4a 2e 6d 4e 1a eb 04 40 fc d1 f2 ca 4b 52 fb 3f
       2.6147962691373197 1.7075918128658705
000780 99 86 8f bf 06 bc f7 bf 8b d9 12 98 fb 7b 05 40
       -1.4834048731649203 2.6855384712936874
000790 b4 bc cf 66 7c ff f3 3f b4 6b 3e c6 ee a0 ee bf
       1.2498744979928178 -0.9571451065015624
0007a0 10 58 c2 34 7d 83 ee 3f 2a 71 eb b9 9d 88 03 40
       0.9535509138538618 2.4417070889450274
0007b0 a1 83 9e 16 4e 9e fc 3f 50 3c 8f 76 2d ba ed 3f
       1.788648689609751 0.9289767566314229
0007c0 4e d5 65 9e 86 63 fb 3f d2 38 ce 50 db 07 fb 3f
       1.711798304311134 1.6894181400744412
0007d0 24 f6 ad c2 f3 49 da 3f 88 1a c1 fd 8c 99 df 3f
       0.41076368343041936 0.49374699383444254
0007e0 7f f8 6f d9 54 1a f8 bf 1e 9e 04 ed f4 f6 f2 3f
       -1.5064285749099608 1.1852921732441994
0007f0 86 0e 1b f9 24 95 04 40 0e df 48 ee bd 2e c7 bf
       2.5728244267828044 -0.1811139501094136
