HPC_Results/B0105+64_Local_Periodic_log3.npy (npy, 177680 bytes, 1 tensors)

array f8 [7400, 3]
00000000: 75b7 ff55 79f6 f93f cfa3 76fc 99b7 fc3f
00000010: a2f7 804a 4652 f43f 333f 12b0 a8bc f93f
00000020: 4dc2 4083 5bb0 fc3f 5ed5 9511 d24b f43f
00000030: 0c9f 6ec4 84ce f93f 1198 183c 7aba fc3f
00000040: dded 5caa 664c f43f aae3 6ec0 84fe f53f
00000050: a5de a032 08b9 fc3f 35b8 7049 6f4e f43f
00000060: 0005 6a76 f1ab dbbf b7de 2d60 dd8e 0140
00000070: a2d6 3afb 4a6d 0140 cc41 4af8 78f9 d7bf
00000080: fe13 faff 607c 0140 0db4 868c 5783 0140
00000090: d937 33a4 657a d1bf a59b 07f8 b5ae 0140
000000a0: cbdf e2fe a9ab 0140 32ab c227 0d4c d6bf
000000b0: 2617 c09f 9e9c 0140 9193 a8f5 f88f 0140
000000c0: 8595 9235 84c8 dabf ee70 c55a 2956 0140
000000d0: 3271 9974 fcbd 0140 dfe7 77b8 2a4f d8bf
000000e0: 477b 4124 ed21 0140 7ac4 3d80 84b1 0140
000000f0: e752 147e 3210 d5bf e034 1e16 5ca1 0140
00000100: f5b5 7052 c59d 0140 44bf 6b27 0527 d6bf
00000110: 4b28 9fba 7d8a 0140 4492 13b5 77d4 0140
00000120: fe63 c1a3 ce78 dabf cbea c03f 6243 0140
00000130: bdde 9f4e 3d9b 0140 0ffb bbb1 3805 cdbf
00000140: d93d 4eb7 2cf6 0140 28ab 68c2 9daa 0140
00000150: 7ecf 770b ead2 d7bf 31ac 3fd0 9e62 0140
00000160: 80f8 8554 d8ed 0140 20f8 8907 82f7 d0bf
00000170: cf09 1eed 60d2 0140 e4d3 c8eb 97ae 0140
00000180: 27bd 2007 22f3 cbbf acc8 e1e7 73d2 0140
00000190: 46e6 33d9 beb7 0140 79e0 0547 67f8 d5bf
000001a0: 9a05 adfd 3090 0140 e029 e3fb caf8 0140
000001b0: bf41 82b8 fa8a d8bf 643f e50b f565 0140
000001c0: 66e9 f57b f8b4 0140 1f1c eeb5 ee7c d4bf
000001d0: 50d1 d5e2 b284 0140 c676 010a 34d3 0140
000001e0: 4256 78ee 16a0 dfbf 89dd 4a44 352b 0140
000001f0: 9247 a039 bcdf 0140 fdc1 f08f 29d3 d0bf
00000200: 9c16 0d46 02dc 0140 31ec 0ecb 189b 0140
00000210: 800d b132 25f8 dbbf ae38 9010 134b 0140
00000220: d09f 6f6f 4f8f 0140 0235 dcde 8c39 cdbf
00000230: eae3 eb14 c5cf 0140 a589 a070 1ab1 0140
00000240: dbcb 75b9 70db d8bf c69c 4c6f eb72 0140
00000250: c756 3c54 3382 0140 68d2 a723 c7dd d9bf
00000260: 9722 8831 df30 0140 7885 eee1 8aac 0140
00000270: 8a97 beab b1c3 d2bf 80a0 ffcd 5192 0140
00000280: 4c10 c8ea cbc7 0140 7276 aed1 e76e d6bf
00000290: 453c dc4b 0684 0140 9cb5 f2c6 1ea0 0140
000002a0: 8dcb 7817 d67c d9bf 9878 135e ab5d 0140
000002b0: 58f9 051e edd4 0140 5557 bd8a 4bde d9bf
000002c0: af5d db9f 3279 0140 6c8f 0657 8d7b 0140
000002d0: 84b8 cf41 fe6b e1bf 8b22 22b2 aec2 0040
000002e0: ff4b c8d7 7f9d 0040 3222 4e43 275e e3bf
000002f0: 5605 00af c487 0040 88ce db82 59a6 0040
00000300: 9433 b7ff 71c2 d7bf be99 f2b5 304e 0140
00000310: 8673 5f5d 08c4 0140 06cf 7736 3e33 dbbf
00000320: e57b cb50 5b09 0140 cd52 254e 8ec0 0140
00000330: 5b07 49e0 ea7b d6bf 7c76 4239 15a9 0140
00000340: 6db8 1a69 a0f6 0140 c0a2 2eb4 96df d9bf
00000350: 7310 f62e 0351 0140 2688 f84f 448d 0140
00000360: ff0a ba9c 2664 d8bf 4f1f 2be5 796d 0140
00000370: 32c2 a454 2896 0140 63c2 b3f4 1f78 d8bf
00000380: 228b 9ba9 a250 0140 f8bf 4783 a185 0140
00000390: c7dc ae75 9642 d1bf f4c5 06e2 d1d4 0140
000003a0: 504b 81ab b096 0140 4a84 cd66 a084 dbbf
000003b0: 2bec bf57 be26 0140 3d27 727f 006e 0140
000003c0: 8916 d3d2 7055 d9bf d890 f842 7473 0140
000003d0: 333b d1ce 7400 0240 1bd1 04d4 3c53 e3bf
000003e0: 274c e183 0280 0040 9444 dead 0ae2 0040
000003f0: ad66 dd94 9a13 e2bf 1abd 72f4 0a96 0040
00000400: c990 f09c e7cd 0040 6f89 8b38 0157 e2bf
00000410: b9cb f257 d9ba 0040 4bb9 e837 49bc 0040
00000420: c077 553c be71 e5bf 9863 5923 d354 0040
00000430: 2773 af49 155b 0040 9a29 e910 51a2 e3bf
00000440: e8a2 b013 6faa 0040 ee31 bc9b 8212 0140
00000450: 14f8 287c d9de dbbf fb49 9814 5063 0140
00000460: 0791 9f11 3dbb 0140 26ce 8da0 538d d1bf
00000470: fc88 390d c79e 0140 679d b4eb 62c0 0140
00000480: b2a5 d4b0 2dd2 d6bf 4eb1 c78c e958 0140
00000490: b8ba 2d2f 7754 0140 6af5 8020 f7ce ddbf
000004a0: c42b 014c 020f 0140 429a 27f9 a46d 0140
000004b0: 175c 867d 9910 d7bf 9f1e f87d b29f 0140
000004c0: 7642 a838 4bad 0140 e62c 6dbe c9e8 d5bf
000004d0: 976f b307 6b65 0140 21da 3260 fee0 0140
000004e0: abe3 d932 a215 d8bf 6040 5c8e bb36 0140
000004f0: 32ea 7b82 06a8 0140 aeb1 b1b2 7a1e dcbf
00000500: c2ff 4350 d83a 0140 7305 0fb8 6591 0140
00000510: 39e1 a6a3 20e3 d5bf 215d f8b2 5e7f 0140
00000520: e6ea d679 fcab 0140 2791 b975 b46e dabf
00000530: e019 57b0 698f 0140 6b98 9a76 e194 0140
00000540: 8e97 c807 a2ba dabf cdfe 4027 2e47 0140
00000550: 982f 0f38 c179 0140 a703 eb5e eab1 dbbf
00000560: 9db1 cf09 2c31 0140 65fc 220f 024b 0140
00000570: 6863 995b 200b d8bf 013a 977f 2e88 0140
00000580: 7e27 601e 2480 0140 d9b3 9c32 4b07 d6bf
00000590: b01e 7298 55b4 0140 cf87 4961 c9ff 0140
000005a0: 5afd fdd0 eda8 d4bf a35c b1c5 f892 0140
000005b0: 4664 469b b2bf 0140 d273 4d81 daea d9bf
000005c0: c74e f4af ae4a 0140 72a4 6341 4ca6 0140
000005d0: e2d4 a876 1244 dbbf fb0f d9a4 a4a1 0140
000005e0: 50cf c6d6 8bdc 0140 fbdd e5d0 4f38 d5bf
000005f0: 359c e25e ed71 0140 58e0 a75d cabd 0140
00000600: ef69 4b7a 5721 d5bf cd09 63f6 3b66 0140
00000610: 9a90 82b9 ffed 0140 f89e 7b1d 9f3d debf
00000620: 4d97 c729 5bd6 0040 7beb a50a 0c85 0140
00000630: e946 b4c2 03ba d5bf 5b9b bc58 7863 0140
00000640: 2f3f d8d9 a8b9 0140 9e9f 753a 9bc9 d0bf
00000650: 3696 c0ad ecfe 0140 c7d4 9a1a 1f53 0140
00000660: e91f 121b 0e91 d2bf 8e52 55d8 cfc7 0140
00000670: 8066 89bd c09a 0140 6a9a a4a5 6915 d3bf
00000680: f4a8 2e05 6f84 0140 e263 b526 79b4 0140
00000690: 1ae3 1dab 7b3f d3bf bf9b 1fde 688b 0140
000006a0: cd09 e378 cfb7 0140 ad78 efdf d01d dabf
000006b0: e4ef f167 d817 0140 d20e 939c 3980 0140
000006c0: 83e7 a42a 6b64 d2bf 18fd c0e6 6884 0140
000006d0: d427 73ca b2b3 0140 057e 61fe 96a7 d6bf
000006e0: cc94 bcd5 17b5 0140 0009 288d babf 0140
000006f0: 2fdd eb22 eab6 fb3f fb95 75f3 ad92 fc3f
00000700: 52be 6cf8 f34b f43f f4a4 5710 efa5 fb3f
00000710: 2374 5867 c79e fc3f ce08 7d69 024e f43f
00000720: 5c23 b223 3519 fb3f c9de 0df7 3fa6 fc3f
00000730: 1138 dd60 db4c f43f 7d1d 710f 02f2 fa3f
00000740: 24a0 9f2e adab fc3f 0ea7 7692 2e4d f43f
00000750: 6393 1f9b b960 fa3f df04 d942 92ab fc3f
00000760: 3928 2b0f fe4b f43f 7f14 c10a 0fcf fc3f
00000770: bec5 35cb 5ca3 fc3f 828a 8048 c74e f43f
00000780: d9bc 4c90 adcc fb3f 79bd 238c 84a3 fc3f
00000790: 4388 1713 b54a f43f d790 6b56 a8cd fc3f
000007a0: cdbe ca36 4999 fc3f 550f ff4a 714b f43f
000007b0: 1d00 b51e f501 fb3f 83fb d0cd dda1 fc3f
000007c0: 2cab 4d99 784c f43f d658 1543 cdd0 fd3f
000007d0: 56e0 7fcc 8d9d fc3f 2be1 dd5a 814f f43f
000007e0: 3806 a83a 3999 fc3f 2cb2 ee4e 11a9 fc3f
000007f0: cc3f b978 0e4f f43f f41a ccf2 7d52 fc3f
1.6226743087131272 1.7948245870450028 1.270086566000352 1.6085593107017757 1.7930560233181894 1.2685108839917443 1.6129195855264156 1.7955267283919094
1.2686525969319213 1.3746383206291548 1.7951738336250085 1.2691491001855983 -0.4323695808780741 2.194758178138581 2.178365671856981 -0.37460159537388615
2.1857318876450327 2.189131830082721 -0.27309552226222206 2.2103080155679486 2.208820334719325 -0.34839180834630945 2.2014744263168664 2.1952990715094036
-0.41848855239580757 2.1670710650924923 2.217766676838573 -0.37983196272364056 2.141565593002642 2.211678506741518 -0.32911360084953717 2.203788922116118
2.202036518158588 -0.3461315999002077 2.1926226215191824 2.228743948611994 -0.41362348548642547 2.1579022389172215 2.2008005278147196 -0.2267218463748226
2.245202476573223 2.208308714694244 -0.3722481834404262 2.1731544751578658 2.2411352733025183 -0.2651066850302204 2.2277239346305815 2.2102507038748502
-0.2183573279194004 2.227760135248067 2.2147194832766983 -0.3432863420089301 2.1954059427668655 2.246480911130888 -0.3834826280445007 2.1747837952934095
2.2133645710393237 -0.32012527243245076 2.1897943231107675 2.228126600427319 -0.49414609230129625 2.1460976920458887 2.2342457296408123 -0.262888327185493
2.2324262116188276 2.200730883019354 -0.4370205874476696 2.1616574567807083 2.194975729555132 -0.2283187950310222 2.226450122307587 2.2114762114517412
-0.38839357482282616 2.1811131186728714 2.188574464885139 -0.40416124803531384 2.14886320778562 2.2092492724338477 -0.2931942155067807 2.1964450925480037
2.2225569097809394 -0.3505191371603821 2.189465134295036 2.203183702737716 -0.39824440281079704 2.1707370137874697 2.2289678903172607 -0.40419281529226697
2.184178589708345 2.1853281782986667 -0.5444327626589858 2.095059768358913 2.0769039972306014 -0.6052433313898915 2.0662931129342423 2.0812254165010167
-0.3712429997656781 2.1631788458500685 2.2207190794710554 -0.4250026256479348 2.1295687019441965 2.219021425737401 -0.35131332304819346 2.207560012188706
2.245423146369879 -0.4042717704383385 2.1645568531840182 2.1939779517861266 -0.3811127214941478 2.178455152872551 2.1983191120891883 -0.38233183762262096
2.164372754153548 2.1902494674941373 -0.2696891927002522 2.2289159448926004 2.1985791586716132 -0.42996988334022446 2.143917737526427 2.1787118870460334
-0.3958398875077838 2.1813740951639424 2.25022279335044 -0.6039108410828108 2.062504797280343 2.110371931405618 -0.5648930461422502 2.073263082267329
2.1005394230761323 -0.5731206993480508 2.09123486242012 2.091936528005282 -0.6701346567531274 2.0414183389334077 2.0444741970699343 -0.6135640459336174
2.083219674900068 2.1340381781394546 -0.43547665715220885 2.1734925850844298 2.2164250733204685 -0.2742508953008119 2.202528098409969 2.21893867630904
-0.3565782763349389 2.1684142111245484 2.1662429509954926 -0.4657571618480093 2.1323285997254704 2.1785373177729364 -0.3603881574467222 2.2029771653504464
2.2096161295269736 -0.3423332557328663 2.174520549930047 2.2348601832884616 -0.37632040944986994 2.1517249223616517 2.2070436662736705 -0.4393603081760159
2.153732897830168 2.195994794805921 -0.341987762275966 2.187192342953168 2.2089776533806456 -0.41300689217156833 2.1950258041936053 2.197695662110211
-0.41764117012132196 2.1597559992513653 2.1844505672106145 -0.4327341010030587 2.1490097776897543 2.1616250212241988 -0.37567910142165895 2.191494938662118
2.1875688908666566 -0.34419517462339183 2.2130538854433652 2.2498958206715325 -0.32281060609235157 2.1967635578872247 2.218602383695301 -0.40495932223512654
2.1614660021240044 2.206200133183807 -0.4260297926696933 2.203927314638347 2.232688596670336 -0.3315619983690962 2.180628529825777 2.2176711384636683
-0.33016001646833976 2.174919056794556 2.241210412308715 -0.4725110805434123 2.1046660675082536 2.1899643737683028 -0.33947843565066066 2.173569386726212
2.2156540888899126 -0.2623050757306319 2.2494748663327995 2.1655866697788926 -0.290103460728004 2.222564401725612 2.2005629355961105 -0.29818192649910336
2.189664879309129 2.2131217025857817 -0.30074969969386844 2.19307111295663 2.2147511905943476 -0.4080698191518291 2.1366432305057845 2.1876098854425914
-0.2873790661284305 2.1896532085080587 2.2127433601753896 -0.353978870791224 2.213424367730658 2.2186175372927437 1.7321568836321821 1.7858104238633803
1.268543215188306 1.728011192166659 1.7887643849310357 1.269045269073604 1.6936541933411808 1.790588345580476 1.268763903022322 1.68408399612403
1.7919132062179495 1.2688432427625602 1.6486145076280188 1.7918875323523975 1.2685528366587404 1.8005514545523338 1.7898834169285318 1.2692330200303847
1.7374702107152216 1.7899213289454947 1.2682390924242248 1.80020936735041 1.7874233379661064 1.268418591455846 1.6879779052251316 1.7895181693745321
1.2686696995176119 1.8634770031399532 1.7884653080236794 1.2694104718667159 1.7874080935729477 1.791276272134506 1.2693009105459963 1.7701396450299258
