HPC_Results/B0105+64RBF_uniform_likelihood.npy (npy, 444880 bytes, 1 tensors)

array f8 [27800, 2]
0	0xbff58fd30676f1c2	-1.3476133587383718
1	0x3fe6cc204db90e03	0.7124177473091894
2	0x3ff41419024a1d22	1.2549066628869885
3	0x3feb2d124e52614b	0.849251893017063
4	0x3ffda613dd40b5ee	1.8530462877928318
5	0x3fe1dd79bf5ead99	0.55828559281274
6	0x3fede43c787a9f7a	0.9341108658891095
7	0x3ff72c0e5c97f6a7	1.448255883878497
8	0x3fff7cd7dd9af4a6	1.967979303022085
9	0x3ffd426e36fe0ffe	1.8287183902875763
10	0x3ff89ababbb4ea9c	1.5377757389348181
11	0x3ffc9b2a3103a9db	1.7878820337888246
12	0xbfe296a163d3822e	-0.5808875035982675
13	0x3ffecdec55e2b501	1.925274215212369
14	0x3fdd8d245ca80034	0.46173962639295785
15	0x40052dc0c8490a1a	2.6473403594293474
16	0xbffc0ab4ba902ecb	-1.7526137626290843
17	0x400220e56a13c2e4	2.2660625731735866
18	0xbfe09fceb48307be	-0.5195077443715872
19	0x3fff4d6b01edd920	1.9564008784632918
20	0x3fe97c6e1a601d6d	0.7964392199655045
21	0x400315e60aad4d5a	2.3856926759851094
22	0xbfe90e85da248f23	-0.7830228100396862
23	0x400160251d3bd060	2.171945789707067
24	0x3fdb08eff8260f44	0.4224204943968639
25	0x4004063ca3f91a7f	2.503045350112472
26	0x3fee9ef1e0640510	0.95690244509038
27	0x3fe2bf63adeb6212	0.5858629605164103
28	0xbff385952c065157	-1.2201129646028528
29	0x3fec883bb42ea272	0.8916300315077719
30	0xbfeef1da16c07a2a	-0.9670229381916375
31	0x3ff6cbae5cbf2fd1	1.424726831714896
32	0xbff1dd24b6b9c1c6	-1.116490091106344
33	0x3fe697db3ac4b2ef	0.7060371539897384
34	0xbfe1dabc0c769910	-0.5579509967253973
35	0x3ffc55d0ff75ddcc	1.7709512690470204
36	0xbff9761616f4615a	-1.5913296600975486
37	0x40029f8e40d15f94	2.327908045186584
38	0x3fd2f9deb3d46544	0.296500850310242
39	0x3ff7499d54b60cf4	1.4554723080662457
40	0x3fe2ece4655b0d46	0.5914175014117198
41	0x3ff559ac50387204	1.334392846452034
42	0x3fbb5e932bd4547a	0.10691184825948766
43	0x3fe8a90956285555	0.7706343348278702
44	0x3ffb4385d8c0b0b7	1.7039850680257993
45	0x3fdb8d4b1aa352f8	0.43049886323323916
46	0x3fe5c369f64fb334	0.680104237629712
47	0x3fe27c911afa1172	0.5777059103861986
48	0x3fe0170bfe3eb0fc	0.5028133359642477
49	0x3ffc2656f77320b5	1.759360281563244
50	0xbfaec2bed8ad4a00	-0.06007954020482842
51	0x4000fb91feeaae60	2.12283705857935
52	0x3fe761617424bd96	0.7306372898510058
53	0x40001c4791b41fe2	2.0138083823294304
54	0x3ff85732ccce71f6	1.5212886810542137
55	0x3ff3fca98c1bb7ad	1.249185130403457
56	0xbfe7664abcc3b75e	-0.7312368094260184
57	0x3ff8bc4228d1c1c4	1.5459615320688593
58	0xbffe71772cfd7f5d	-1.9027015454702998
59	0x3fda912cf8aa76b8	0.41511081966187247
60	0xbffba71a178c9f66	-1.7282963676352323
61	0x3ff7020a830bc913	1.437998306177694
62	0xbfe8010ca67d83aa	-0.75012810247073
63	0x3ff0b9883d5ecb6f	1.0452959439541833
64	0xbfe641338bceb4c6	-0.6954591494192293
65	0x3ffae50940061057	1.680917024700667
66	0xbff7869b5bae02ec	-1.4703630048026595
67	0x4005c370b72b1792	2.7204298315072686
68	0x3fd1accec83033d4	0.27617234754216935
69	0x3ff6253170a64bd9	1.3840803528189467
70	0x3fd5855fcd670da0	0.3362655168422979
71	0x3ffb7b8287bde2cc	1.717653780213527
72	0xbf96e0f054dd8280	-0.02234244840599553
73	0x3fe366c516e0f5b3	0.606295151410157
74	0x3fe002f39028faf5	0.5003602805735158
75	0x3feb6fcc51dcca1a	0.8573972319484853
76	0xbffa9a4d105f5f88	-1.6626711501648703
77	0x3ff8e01d9bac69f2	1.5547157364841238
78	0x3ff18c007961e51b	1.096680139684685
79	0x3ffc873c62eeba58	1.7830165733863819
80	0x3ff5f7abddc5de2d	1.372966638851618
81	0x3ff7aff9804bf973	1.4804625522225165
82	0x3ff4d8564af53ccf	1.3028166702313688
83	0x3febbaeecb0da5bd	0.8665689435849157
84	0x3ff4fdbc0bc6a33a	1.3119469127652352
85	0x4003b57ddaae08a8	2.4636189541207223
86	0xbfd1b8eee7bf0588	-0.27691242820227346
87	0x3ffada435064f341	1.678286851921442
88	0xbff386458932cede	-1.2202811583819577
89	0x3ff3715528c240fa	1.2151691047802715
90	0x3feb2140589b59fe	0.8478090029337293
91	0x3ffefd0db2cb2f80	1.9367806419495253
92	0xbfe62d7cd40a7bf8	-0.6930526868271718
93	0x4001c400a343cdca	2.2207043414179894
94	0x3ffe5a6ad11c3bf2	1.8970745247240726
95	0x40014efc214f79c2	2.1635668375376733
96	0xbfeb9298693e5cee	-0.8616449409045381
97	0x3fde1ab912da10dc	0.4703810390567591
98	0xbfd455b1f846a98c	-0.3177304195948174
99	0x400322210afc3476	2.391664586850818
100	0x3fb918deac1fa3d0	0.09803573324428716
101	0x40019c316e2924ee	2.201266155844329
102	0x3fe199e9e2b88658	0.5500382831707595
103	0x3ff2c5e8ac94af14	1.173317598479973
104	0x3ffa5e29e5b859bb	1.647989175171104
105	0x4003794cb207f13b	2.4342283161805915
106	0xbfffc8ac3902413e	-1.9864923693567813
107	0x3ff9269962c65d6a	1.5719236238854486
108	0xbff1bfb0f0e669f9	-1.1092996034773235
109	0x40006b82272e2ecc	2.0524943409890053
110	0xbffcfa798db637a1	-1.811151078759828
111	0x4001f2267f2d9909	2.243237489298853
112	0x3fdc31b4dfdd517a	0.4405338464905736
113	0x3fea18fbbcd5d8a2	0.8155497253599331
114	0xbffd1eb2c97b1e9d	-1.819994723353296
115	0x400590cb8ecfb740	2.6957007558002317
116	0xbff66d56d1197edf	-1.401694123072893
117	0x3fe89a044e604970	0.7688008814605336
118	0x3fd97db784daea44	0.39829814886221393
119	0x3ff89076a2c0ba84	1.5352693898709342
120	0xbfb2312c378f2310	-0.07106281620430033
121	0x3fdfdb50f0486579	0.4977609964858725
122	0xbff295b7e22879a4	-1.1615523180295009
123	0x3ffb3132c92e00ce	1.6995113237936041
124	0xbffbc08545b6f603	-1.7345020983915453
125	0x3ff284ec59d255ac	1.1574519642502805
126	0x3ff461a2b27c4ec2	1.2738368007748453
127	0x3ff92cfe5a734c84	1.5734847577303137
128	0x3fe324b372103344	0.5982300975607378
129	0x3ff7d6817cbd18e3	1.48986958242454
130	0x3ffc7beb7e1acccf	1.780253880115925
131	0x3ff737e384ffabc7	1.4511447139036464
132	0x3fd09af6faf3d17c	0.25945829875060844
133	0x3ffd4abca6059906	1.8307463155011319
134	0x3ff07f2824646546	1.0310441419190552
135	0x3ffa9e35b90d4f68	1.6636254528611634
136	0x3fe6d15b670935d8	0.7130562794133608
137	0x3fec168aeaa98c6e	0.877751787495425
138	0xbfaa930e88dc5310	-0.05190320416128291
139	0x3ffa8b4f7eb9a39a	1.6590113592339777
140	0xbff5343e5e920de4	-1.3252547926102745
141	0x3fff6f06f6ed14be	1.9646062512922948
142	0xbfcef21f35b1fc10	-0.24176397439802644
143	0x3ffa8084d0f34b10	1.65637666341053
144	0xbfc39bea4f1e1fa8	-0.1531956564251662
145	0x3ff708499f1145b2	1.4395233357975994
146	0xbff963988fa3032e	-1.5868154154597494
147	0x3fe167a026d5cf8c	0.543899608469006
148	0x3feb57f54efca915	0.8544870894159283
149	0x3ff6b63aeabaccff	1.4194897812965903
150	0x3ff9722cd9ee92be	1.5903748047796138
151	0x3ff34910e6202a97	1.2053383816989134
152	0x3ff0b936c5f2c7b9	1.0452182514531911
153	0x3fe0c96f216365ef	0.5245891239275674
154	0xbff57d72c1564958	-1.3431270172337317
155	0x4001db87c035d397	2.2321925178934623
156	0xbff0ba4452ac3682	-1.045475314083348
157	0x3fdd40f05e3b9c78	0.4570885582201707
158	0x3ff3abc15e9a9a1e	1.22943245844511
159	0x3ffbefb18123a2ec	1.7460188908100305
160	0x3fe574f60ebf2329	0.6705274856586573
161	0x3ff00deefee88a47	1.003401752219945
162	0x3fe6231b61e00289	0.6917855178472375
163	0x3fe19563f9742f64	0.5494861480851623
164	0xbfd55982e18571bc	-0.33358833335457994
165	0x3fde1fa2dd2736a1	0.47068091961851094
166	0xbffb7c5a19af4478	-1.7178593638712112
167	0x40044d54f084cb8c	2.5377596655393457
168	0xbffa1925346b237e	-1.631138996848875
169	0x4003e75e6ee40f95	2.487973085722795
170	0x3ff9296a165240f8	1.5726109382558757
171	0x3ffd0fa234097f3a	1.8163167984675526
172	0x3ffdca2b29f653de	1.8618575705670461
173	0x3fff6106eb8e1681	1.9611882401817697
174	0x3ff5bc59bb6837df	1.358484012660021
175	0x4005d4a6e7774980	2.7288339694288766
176	0x3fc7b03dc9bd4724	0.18506595945887583
177	0x3fe4cd661a39e1d6	0.6500731003025588
178	0xbff11d437e9e8b98	-1.0696444459979144
179	0x3ff1f724ddf2f9da	1.1228378934753125
180	0xbffc71d009b6ef78	-1.777786291072486
181	0x3ff77685da0859e3	1.4664362446688919
182	0xbff425f9dc485d81	-1.2592714886467038
183	0x3ff2ba4ed2a66df6	1.1704853275795108
184	0xbffb8a87c4493474	-1.7213208835048848
185	0x400344f25b4ad04e	2.40866538354934
186	0x3fef833c4bd0b08f	0.9847699623837957
187	0x3fe88f2f5c6a932d	0.7674786381727238
188	0x3fee24dc0b15473f	0.9419994560687214
189	0x3fe3537fb623f3e2	0.603942733519599
190	0x3ffb68cce576d276	1.7130860293811145
191	0x3ffefacf4aa62092	1.9362328449224475
192	0x3ff04662cef8d46a	1.0171840748637586
193	0x3ff7f405e167cdb7	1.49707592057244
194	0x3ff1fcf8711fd150	1.1242603701512799
195	0x3feb82a481791443	0.8596975830811363
196	0xbfd698bf0865cac0	-0.3530728895195061
197	0x3ff1e5925bf5a433	1.1185477821511653
198	0xbfe5f180cf29510c	-0.6857303663369136
199	0x40022ab8a4fa99b2	2.270859993837086
200	0xbfb0d066d44625a8	-0.06567995722266196
201	0x40008f627ef6f00e	2.070012084876004
202	0x3ff71478e0dad612	1.4424980910674816
203	0x3ffb76c8f691e75f	1.7165002471578743
204	0x3fe4490b89ca1d04	0.6339166346741938
205	0x3fe7500c348f7e63	0.7285214449475003
206	0x3ff0a505e498a2cc	1.0402888230839151
207	0x3fecf31873472cec	0.9046747447513588
208	0x3fe2609d455ff21a	0.5742937426544501
209	0x3ffbbd0227e232c4	1.733644634051573
210	0xbff3e8654821b3a9	-1.2442372148172842
211	0x3ff17124cfd9a06d	1.0901229972023672
212	0xbfe046185cc82ddd	-0.5085565387866456
213	0x40021456762f8853	2.2599305375343106
214	0xbff0fd56c419b55b	-1.0618503246472162
215	0x40058e3170fafe45	2.6944302393528994
216	0xbffd41c4ef752591	-1.8285569528401064
217	0x40062115fc291574	2.7661552143132955
218	0xbfd04fca6c3047d4	-0.2548700386552103
219	0x3ffb993cca5f62ee	1.7249114899806801
220	0x3fff3ce15e625b54	1.9523633658297586
221	0x3ffa763e3f210971	1.6538679567316559
222	0x3fe609839edc34f0	0.6886613943803734
223	0x3ff6e56e09b2b413	1.4310131434278943
224	0x3ffd8da5ba2e7edb	1.8470818779678015
225	0x3fdd2008aea4ea00	0.45508019499871466
226	0x3ffe45e54cfa14a5	1.892064381304672
227	0x3ff2166f6ddf7778	1.1304773609076317
228	0xbfe8b02bb33ab37c	-0.7715052128383912
229	0x3ff92d7af6f1f081	1.5736035963336976
230	0xbfe2554e87abbb51	-0.5729134225674476
231	0x3feb9f31a70ce104	0.8631828558636987
232	0xbffedd70a7698384	-1.9290625133073442
233	0x3ffe4c54574dd9b2	1.893635121375706
234	0xbff5befb8a8b751c	-1.3591266071228523
235	0x3ffaea20f4d2c5d3	1.682160335866105
236	0x3fc88c8f7c2602df	0.19178956567704739
237	0x400579490b05828e	2.6842213498169434
238	0x3ff20cf16e0d7937	1.128159932988252
239	0x4006381a82b1c2a2	2.777394314813436
240	0x3fe31dccab8fb3ef	0.5973876334006699
241	0x3fff21c4ba38a7d2	1.9457442545194579
242	0x3fec707b66f32ae0	0.8887307177295405
243	0x3ff8c4577e1be1ad	1.5479350019578348
244	0xbffedbd8d588343a	-1.9286735859962065
245	0x3fec2d8590341d8e	0.8805568520046323
246	0xbff3ea884af7d058	-1.2447588852346794
247	0x3fdad64e43ad81d0	0.4193301831164975
248	0x3ff7be7839a73fd6	1.4840013744433143
249	0x3feabf5805c5484c	0.8358574021060661
250	0x3ff1a14f204439b0	1.101882101098095
251	0x3fdb7c40d9a0f270	0.42945882084658304
252	0x3fcd69702ed88120	0.2297802189577931
253	0x3fe8cfea07fe874b	0.7753801494729741
254	0x3fdea06d867c6a94	0.478541737874971
255	0x3ff76087e52bf335	1.4610670997637503
