HPC_Results/B0105+64Matern.npy (npy, 237680 bytes, 1 tensors)

array f8 [9900, 3]
-1.8680889368995799 0.24667993444860192 2.7502187027972993 -1.3397263241043307 0.35795050583672006 2.758298416369364 -1.3100948219998274 0.3456504541054197
2.715099332391 -1.895106563891407 0.26635132638209663 2.766029487930791 -1.7688262541912891 0.23886506752116587 2.7702479994636398 -1.8586869797495538
0.23016286956981713 2.7189361890637036 -1.3464511326744621 0.393648207614847 2.566632164782926 -1.585757539859665 0.2726286076631579 2.7695618372496464
-1.4388009054483335 0.41715656859295647 2.6480606673584193 -1.8598357957386988 0.37481870865531275 2.511294920704909 -1.3090799223485168 0.4068952667040229
2.636661380155905 -1.7769330696941632 0.3470303728367969 2.682562079204277 -1.8312895077376448 0.3110868010535753 2.627642538620375 -1.5430293585537573
0.293960693275918 2.7699009608867757 -1.7609360392946527 0.2549873323906818 2.7590941559877025 -1.9835737769875368 0.29786468431559154 2.6353011128223334
-1.9712734638861433 0.20956099452260973 2.7565194146701537 -1.5518481148185757 0.4217624878490087 2.5430329546006316 -1.4891604592470735 0.40822742183974564
2.535241137976355 -1.7561917110155232 0.3407885240123948 2.6250575549845827 -1.8410223287652148 0.23967156592880265 2.7658058881283116 -1.5865475888977671
0.31065304997333326 2.687886974011501 -1.8735147717764982 0.26527680879513643 2.7312274683164763 -1.6802189323696273 0.2729532212752734 2.777556393116203
-1.6756667443825193 0.28347511049152985 2.7685267922779295 -1.9538086684011993 0.23941108834642993 2.768301356594588 -1.6432031603575674 0.3020523266369951
2.697498023656382 -1.9699180732644237 0.36815338182657054 2.5651393386303467 -1.6964514543668054 0.29948722060297384 2.7363483375548117 -0.9731971659481436
0.45075088584168876 2.6089855615265023 -0.9136798163214311 0.4232172200688652 2.672573041931425 -1.4891346981886913 0.33220893448719174 2.732546061452659
-1.902711330592585 0.27356839224545587 2.7182871780766567 -1.512758765983561 0.38484219166145917 2.6262646846235067 -1.3440894898996563 0.44668966229951335
2.540227710756939 -1.7578414398067892 0.39669045502129496 2.5937139374086304 -1.6943283172964927 0.3786150034163739 2.608460251397067 -1.3894619623475764
0.32170092142294987 2.7356652404607567 -1.4379855521019886 0.380840557212623 2.6746467286841704 -1.6296422001002144 0.27899876116753847 2.7400529303915167
-1.181810936511515 0.32413172780984834 2.744159442474345 -1.8096469229053929 0.37117325961065584 2.5057053659752624 -1.5090824380016787 0.39863892575111354
2.6252772016872763 -1.7780119942826997 0.431535540745257 2.5189566830559977 -1.7496650371864373 0.29849313850637105 2.7121666339703414 -1.3806379162163225
0.5151866838776686 2.444259018593914 -1.4880643680192256 0.3669952327635647 2.7078552873318738 -1.569647174528364 0.30050850699352727 2.746914389518454
-1.428510345991246 0.33216057606123456 2.6841280543380233 -1.415182459352863 0.3848736163668112 2.675250294526824 -1.5573860252717948 0.3318750137158208
2.683652046550612 -1.4526713289768682 0.37666827279335563 2.633859974427176 -1.3896049366486443 0.43061030494937924 2.4882635962996953 -1.991855819764292
0.26562441684047555 2.6582145099536363 -1.6208687347808304 0.33177264122023886 2.6605676911723775 -1.9152126262576035 0.3464403181197123 2.6289696044399813
-1.7153839744767456 0.27281230995930517 2.7395217800520064 -1.4341270299888975 0.3079178747454749 2.695072708288053 -1.4506935254764228 0.36349163568797427
2.6750127318466888 -1.9247071706574768 0.30922500720638846 2.6373299060940414 -1.4436839922364235 0.3151149784605808 2.7615883381084534 -1.7894902834123094
0.3179771846229123 2.734386272931293 -1.4131331078770162 0.36356613962944256 2.7205585326928325 -1.5908030608528567 0.3216662298060407 2.728304822043603
-1.51386040959561 0.363355110405114 2.6541811231569454 -1.305387920310432 0.36754715405221694 2.6873121846366628 -1.6322445333926678 0.563446938981531
2.382403470945081 -1.5028277086821897 0.3862541192088934 2.574100375329835 -1.4829299878574864 0.3743525293332329 2.630139921639148 -1.7851844801116594
0.28733944995429034 2.7188874208557547 -1.7219727551921582 0.30761502555623854 2.6294690477967633 -1.2923843611212458 0.43376306508874063 2.546810586415867
-1.7408904365031934 0.2875721705926682 2.7498726931004995 -1.1639061876810144 0.35452136251044797 2.7767490248791065 -1.8931071326583422 0.26455053484352303
2.704311683574505 -1.8953180481739726 0.21928126413041185 2.7725943921117526 -1.8292216564759924 0.30879945562391503 2.6388515462251183 -1.3421547581170328
0.4203906416007016 2.593261106253994 -1.9150622167218279 0.26214038122744154 2.7113151009990197 -1.607029976682447 0.33471690864935544 2.655306361352602
-1.9620485135810117 0.25307847480122936 2.7372407695878875 -1.732177877583407 0.43185021946492336 2.4977497937306783 -1.940211520049669 0.2822092850440766
2.740740421348602 -1.8507994664677545 0.3191963887333051 2.6296112217984153 -1.8442003913948617 0.256482629449667 2.7384878559861927 -1.8681515560453523
00000000: b60c a039 b1e3 fdbf 30a1 8445 3593 cf3f
00000010: 43e5 caa9 7200 0640 f4e4 b9de 846f f5bf
00000020: 94f1 093d a9e8 d63f f051 97c2 fe10 0640
00000030: 075f f2fc 25f6 f4bf acbd 0e15 231f d63f
00000040: 1316 b0ff 85b8 0540 9293 a542 5b52 febf
00000050: 3fab 036f e60b d13f 9979 7311 d420 0640
00000060: a0ec 20c2 1c4d fcbf b882 946a 2193 ce3f
00000070: cb0b 7cc8 7729 0640 d367 f88e 2ebd fdbf
00000080: 0427 c716 fa75 cd3f 0e84 df9d 61c0 0540
00000090: cafb c757 108b f5bf 226d 7540 8831 d93f
000000a0: b6d5 c471 7688 0440 a652 514c 435f f9bf
000000b0: 7c81 7742 bf72 d13f 2fe5 5909 1028 0640
000000c0: 47b1 2519 5405 f7bf e6c5 da76 b1b2 da3f
000000d0: da06 616e 3a2f 0540 aa0b ea2d e3c1 fdbf
000000e0: 14a0 e69b 07fd d73f d84e 98ca 2117 0440
000000f0: c264 e5c9 fdf1 f4bf c005 d971 920a da3f
00000100: ac2a f3eb e117 0540 f146 d85e 516e fcbf
00000110: eb5f 83e1 be35 d63f 8660 7d1b e375 0540
00000120: a4db 133a f64c fdbf e582 2f9d d8e8 d33f
00000130: 989f 8773 6905 0540 9519 7c8d 3fb0 f8bf
00000140: d47d fb82 40d0 d23f 6757 c1d5 c128 0640
00000150: 93e4 b144 cb2c fcbf ddc8 6063 b651 d03f
00000160: 4d6a f4f4 9f12 0640 aed5 55db b7bc ffbf
00000170: 8234 7109 3710 d33f 8179 f5bf 1815 0540
00000180: 66d1 2d0b 568a ffbf bef4 fe08 e5d2 ca3f
00000190: 0561 060d 5a0d 0640 a014 58b0 5ed4 f8bf
000001a0: 046e ff16 28fe da3f 9c47 65a9 2158 0440
000001b0: 7d66 efea 99d3 f7bf 6374 88e8 6520 da3f
000001c0: 7ca8 7881 2c48 0440 5816 c57a 5c19 fcbf
000001d0: ea0f 5fab 7acf d53f 4836 e62c 1e00 0540
000001e0: a809 54d4 d374 fdbf 1700 b9d0 8ead ce3f
000001f0: 3ec3 64d6 5e20 0640 27d1 7db9 7f62 f9bf
00000200: 8f70 8254 bde1 d33f 57ca c5e2 ca80 0540
00000210: bda5 15a0 eaf9 fdbf 0b64 8a94 4bfa d03f
00000220: 61d9 72c9 8dd9 0540 825c 4a3f 2de2 fabf
00000230: 07c5 adc9 1078 d13f a7d6 797c 6f38 0640
00000240: 26e2 a1ee 87cf fabf 80a1 32ca 7424 d23f
00000250: cb77 f75f f125 0640 96ca d6e0 cc42 ffbf
00000260: 16b4 5fc5 05a5 ce3f 995e 802e 7b25 0640
00000270: aab6 a665 8f4a fabf ea8a 2548 d354 d33f
00000280: c607 05d8 7994 0540 4085 47d0 c884 ffbf
00000290: ccd7 b633 d38f d73f a3cd 08c6 6785 0440
000002a0: f11c bc47 aa24 fbbf 4ad2 8372 cc2a d33f
000002b0: 5718 e298 0ae4 0540 45d4 0962 6e24 efbf
000002c0: 3a51 553e 1ad9 dc3f b0f0 73d2 33df 0440
000002d0: e9b4 4374 dd3c edbf 1a30 d3ad fd15 db3f
000002e0: 3722 9af9 6d61 0540 baf2 c0e7 7ed3 f7bf
000002f0: 89ef 4343 e942 d53f b005 061c 41dc 0540
00000300: 12fb a96f 8171 febf 5377 7a00 2582 d13f
00000310: 8ecd 1759 0dbf 0540 f92f 2a89 4234 f8bf
00000320: c2a4 d324 41a1 d83f 1fc8 180f 9702 0540
00000330: f442 20fb 6381 f5bf 9469 c23c 9096 dc3f
00000340: 83c0 f0e7 6252 0440 2061 7858 1e20 fcbf
00000350: a2ea bc5c 6063 d93f b1cb c217 edbf 0440
00000360: 349a 7702 f81b fbbf 32b0 5c6c 3a3b d83f
00000370: ab54 8568 20de 0440 e719 7577 3c3b f6bf
00000380: 59b2 2676 bf96 d43f d5a9 2475 a4e2 0540
00000390: 7160 6623 fd01 f7bf 14fe 8d12 b15f d83f
000003a0: 496a 202f ad65 0540 61ca 19b3 0313 fabf
000003b0: b1b3 b59e 1ddb d13f 67b9 eade a0eb 0540
000003c0: 14f4 a595 b2e8 f2bf 7083 a200 93be d43f
000003d0: c87e a3dd 09f4 0540 9cf8 f254 50f4 fcbf
000003e0: e85b cb7c 4dc1 d73f 2634 4241 af0b 0440
000003f0: 68f6 62a0 3325 f8bf e7de 40d7 4c83 d93f
00000400: 3273 6155 9100 0540 5f70 75b4 bc72 fcbf
00000410: e400 a43e 479e db3f 1221 eec2 d226 0440
00000420: d8b9 1ac4 a0fe fbbf dac6 fdf6 821a d33f
00000430: e1a3 916b 84b2 0540 6044 9cc8 1717 f6bf
00000440: 5cdb d2c8 687c e03f e782 1eac d78d 0340
00000450: 89c4 2f95 1ccf f7bf 8a79 a092 d97c d73f
00000460: ef20 6b08 b0a9 0540 e4ba 0d5b 461d f9bf
00000470: 463f 6d08 883b d33f 0526 5f40 aef9 0540
00000480: 127b 20aa 2ddb f6bf 8506 cd6e 1e42 d53f
00000490: 6c43 1d21 1879 0540 c0b1 cc5c 96a4 f6bf
000004a0: 89e0 d8f2 c4a1 d83f 4bdb 5ca0 e966 0540
000004b0: f9a2 dc9b 0deb f8bf 5337 91b2 703d d53f
000004c0: 0f3a 6e90 1e78 0540 1bae 9c4a 243e f7bf
000004d0: 33a6 453e 551b d83f d343 a32d 2512 0540
000004e0: dc41 d462 d23b f6bf c000 4586 1e8f db3f
000004f0: ef79 8fbe f6e7 0340 2bc2 4335 a4de ffbf
00000500: 9c54 d68d fdff d03f 3d07 10f8 0544 0540
00000510: 8be1 ef0d 14ef f9bf e4e6 ef50 c33b d53f
00000520: 6609 b3b6 d748 0540 549a aafe b5a4 febf
00000530: 92c2 1503 142c d63f 72fb 4937 2108 0540
00000540: a85c 6777 3672 fbbf ec2b 4ec3 c175 d13f
00000550: 4b06 2065 8aea 0540 73ca 412f 2ff2 f6bf
00000560: 4fae 782c edb4 d33f c283 b347 828f 0540
00000570: f90a 076a 0a36 f7bf b48f e96b 7243 d73f
00000580: 3852 3d13 6d66 0540 de9b 05bf 99cb febf
00000590: a8a2 43af 57ca d33f 477e fb6b 4019 0540
000005a0: 63a0 c662 5419 f7bf b6f2 bd03 d82a d43f
000005b0: c186 69a0 bb17 0640 1040 3c90 c0a1 fcbf
000005c0: 8d17 35fa bc59 d43f 49f8 06e9 05e0 0540
000005d0: 41a0 3376 319c f6bf 1d0d e9e9 aa44 d73f
000005e0: dc27 2631 b4c3 0540 e2d5 0be9 ed73 f9bf
000005f0: f5a6 4ff4 2d96 d43f 2d92 817a 91d3 0540
00000600: c8c1 5eb1 c538 f8bf 5390 01cb 3541 d73f
00000610: 00f5 0c50 c33b 0540 683a a571 dee2 f4bf
00000620: ea18 997f e485 d73f 1641 d987 9d7f 0540
00000630: ccf0 9f71 ac1d fabf 9b9f fedf c107 e23f
00000640: 26b0 0c8d 290f 0340 7e00 4511 950b f8bf
00000650: 8ea3 7c32 63b8 d83f c14d 05f0 c197 0440
00000660: 76b0 81cb 14ba f7bf b94f aa4f 64f5 d73f
00000670: cec0 9acc 860a 0540 5e80 f699 1d90 fcbf
00000680: 25e0 1901 c563 d23f 69a6 500c 48c0 0540
00000690: 0e74 c24d 338d fbbf 866c a1ee f6af d33f
000006a0: 060d 7111 2709 0540 ab0a 4e39 9bad f4bf
000006b0: 0235 b128 c6c2 db3f 131a 8e3a de5f 0440
000006c0: c234 2bee afda fbbf 05db fb1a 9567 d23f
000006d0: a03d 2841 bdff 0540 5f3b 3b18 5c9f f2bf
000006e0: 98ce 6d5e 7ab0 d63f fa71 5831 c836 0640
000006f0: 7a78 69b4 2a4a febf 0fb4 d25d 65ee d03f
00000700: 4625 f929 6ea2 0540 efcf 8604 3953 febf
00000710: 7167 0891 6811 cc3f 388b f9f7 452e 0640
00000720: 7930 7bed 7d44 fdbf 2f59 bbca 5ec3 d33f
00000730: 8e49 1033 5e1c 0540 ff88 8444 7779 f5bf
00000740: ce0b 4e26 aee7 da3f 28cc caad ffbe 0440
00000750: 1c02 6a47 18a4 febf 264d 1573 e8c6 d03f
00000760: a888 bff8 c5b0 0540 1daf 9810 65b6 f9bf
00000770: 064d 0478 006c d53f 23f6 f642 113e 0540
00000780: 08ef 6ffb 8c64 ffbf 18f1 250f 7032 d03f
00000790: 4643 157d dee5 0540 f034 7126 00b7 fbbf
000007a0: 3fd3 571a 6fa3 db3f e44f 6d3e 64fb 0340
000007b0: f1f8 1e3c 1b0b ffbf 1614 7988 b70f d23f
000007c0: da23 6450 09ed 0540 9cee bee6 df9c fdbf
000007d0: 2318 a7b0 b66d d43f e58c b69b 7109 0540
000007e0: 36fb 0445 d881 fdbf 359e 5e1e 366a d03f
000007f0: 7fa1 2f52 6ce8 0540 15fb d2e2 f2e3 fdbf
